transformer_model.pth (torch, 997553 bytes, 29 tensors)

song_embedding.weight f4 [851, 64]
00000000: 0000 0000 0000 0000 0000 0000 0000 0000
00000010: 0000 0000 0000 0000 0000 0000 0000 0000
00000020: 0000 0000 0000 0000 0000 0000 0000 0000
00000030: 0000 0000 0000 0000 0000 0000 0000 0000
00000040: 0000 0000 0000 0000 0000 0000 0000 0000
00000050: 0000 0000 0000 0000 0000 0000 0000 0000
00000060: 0000 0000 0000 0000 0000 0000 0000 0000
00000070: 0000 0000 0000 0000 0000 0000 0000 0000
00000080: 0000 0000 0000 0000 0000 0000 0000 0000
00000090: 0000 0000 0000 0000 0000 0000 0000 0000
000000a0: 0000 0000 0000 0000 0000 0000 0000 0000
000000b0: 0000 0000 0000 0000 0000 0000 0000 0000
000000c0: 0000 0000 0000 0000 0000 0000 0000 0000
000000d0: 0000 0000 0000 0000 0000 0000 0000 0000
000000e0: 0000 0000 0000 0000 0000 0000 0000 0000
000000f0: 0000 0000 0000 0000 0000 0000 0000 0000
00000100: 5692 3abf 176f f33f 1da1 283f 284a af3e
00000110: 475e 01c0 e6c9 263e 059b 433f 10e8 e0be
00000120: 39a4 943f 6c94 cb3e 2aa6 eabf a193 debe
00000130: f768 cb3f 892c da3f 249d 343e 68af 123f
00000140: 7952 1f3f 38e1 043e 7091 f2be a66e b5be
00000150: c06a 0ac0 f30c 783e 0e57 f9bf 04b0 ba3e
00000160: 3108 b03e a8ec b6bf 2447 24bf cdb3 eabd
00000170: 17a4 21bf fad8 ac3f 02e5 80bf c11e a5be
00000180: 569c 373f 4d60 acbe c979 cbbf 46af 57bf
00000190: f6dd 1ebf 0a25 c33f e56f a03e 2a07 27bf
000001a0: 00f0 8f3f 1f39 7d3e b829 593f 45e7 3a3f
000001b0: 800a c53f ca6d d53f 8df9 903f 813c 58bf
000001c0: e1fd 943f 778d 42bf ede8 78bf 477b febf
000001d0: 9581 babe cc91 a33f c2aa aa3e 13fe fd3f
000001e0: e733 35be 3dda 8fbf 19f6 ba3f b139 6a3f
000001f0: 325d 903e b042 b63e 03bd b1be 3ff6 a7bf
00000200: d8d7 b83f efb1 623f 1e06 933f 0329 1a3f
00000210: e3a2 5abe f2ed 6bbf 341e bcbd 8d44 93bf
00000220: 867d 2240 edba 64bf a501 bfbe 4ab4 bc3f
00000230: 9916 db3e 70cc bc3e d2db 9abf def2 c23e
00000240: b316 8bbd 2936 ffbe 1e9a 863f bf25 843f
00000250: 93ac c9bd f952 5cbf 9772 a5be 51cd 303f
00000260: b3bc 723f 6906 28bf e8bd c6bf 8353 c1bd
00000270: 5158 423e d799 1a3f 27e1 60bf 6f68 913f
00000280: dd02 4fbe d0e1 0540 ff40 a73e ed8f 81bf
00000290: fe14 35bf 2b12 cebe c0a4 26bf 70f6 c1bf
000002a0: 491b cf3f 2c52 8fbf 1807 b73d f0e7 07c0
000002b0: e9dc 12bf 6af5 d9be 2dd2 c2bf 3ee0 dbbd
000002c0: 4bbb 453f 0f34 cfbe e5ba 02c0 ec60 433f
000002d0: 3b9e ab3e a5e2 b8be 0ed6 a0be 0869 e23f
000002e0: 94b8 6b3e 1ee5 17bf 057c 783f 63a4 9e3d
000002f0: d5a7 0a3f d7e5 88bf 93ca abbf dbb4 1ebf
00000300: fc51 45be 0924 c23f dbec 813f 4430 bb3f
00000310: 9485 36bf 0492 3abf 2ac2 293f 21ee 433f
00000320: 2ca2 5c3f 2e4e 91be ea93 833e 63ac 353f
00000330: 82b8 49bf 77a2 173f 635e 2bbf 9947 c63f
00000340: bb4f 723f 0632 d83f d009 86be 4fc1 0bbe
00000350: dfc2 9ebe d4f5 863e e3d8 c33f f1ab a33e
00000360: 39e3 4ebf a445 863e 299a bcbf 6f8a 0d3f
00000370: d379 793f 6574 da3f 5947 08bf b1cd ae3f
00000380: 8f7d 993f 501d a33f 5c02 1ec0 d4ef 0840
00000390: c7d5 94bf 67b5 2f40 5964 da3f bf36 6839
000003a0: a41d a13f 2b23 573f be96 9b3e 5034 893f
000003b0: 7068 50bf cf4c bebd 6a5b 04bc 017e bdbe
000003c0: c1bf a4bf e00b e5be 7649 0040 2efc f9be
000003d0: 152b 3c3f 735e 593f d720 813f b775 4cbf
000003e0: bd32 833f 7627 0abf 9cb5 10bf 1014 7e3f
000003f0: 4545 953e d797 1a3e dea2 aabf 1e02 9c3f
0.0 0.0 0.0 0.0 0.0 0.0 0.0 0.0
0.0 0.0 0.0 0.0 0.0 0.0 0.0 0.0
0.0 0.0 0.0 0.0 0.0 0.0 0.0 0.0
0.0 0.0 0.0 0.0 0.0 0.0 0.0 0.0
0.0 0.0 0.0 0.0 0.0 0.0 0.0 0.0
0.0 0.0 0.0 0.0 0.0 0.0 0.0 0.0
0.0 0.0 0.0 0.0 0.0 0.0 0.0 0.0
0.0 0.0 0.0 0.0 0.0 0.0 0.0 0.0
-0.7287954 1.9018277 0.6587084 0.34236264 -2.0213792 0.16287956 0.76408416 -0.4392705
1.1612617 0.39761674 -1.8331959 -0.43472007 1.5891408 1.7044841 0.1763807 0.572989
0.6223522 0.12976539 -0.47376585 -0.3543598 -2.1627655 0.2422369 -1.9479692 0.36462414
0.3438125 -1.4290972 -0.6417105 -0.114600755 -0.63141006 1.3503716 -1.0069888 -0.32250026
0.71722925 -0.33667222 -1.5896541 -0.8425182 -0.62057436 1.5245678 0.3133537 -0.65245306
1.1245117 0.24728821 0.8482928 0.7300914 1.5393829 1.667413 1.1326157 -0.8446732
1.1639978 -0.7599711 -0.97230417 -1.9881371 -0.36426988 1.2778869 0.33333403 1.9843162
-0.1769558 -1.1238476 1.4606353 0.9149428 0.28196102 0.35597754 -0.34714517 -1.3122023
1.444087 0.88552755 1.1486242 0.6021883 -0.21351199 -0.9215995 -0.09185448 -1.1505295
2.5389113 -0.89347726 -0.37305942 1.474252 0.42790678 0.36874723 -1.2098334 0.38075918
-0.06791439 -0.49846008 1.0515783 1.0324019 -0.09847369 -0.86064106 -0.32313988 0.6906329
0.9481918 -0.6563478 -1.5526705 -0.09439757 0.18979003 0.6039099 -0.87843555 1.1359996
-0.20215936 2.0919075 0.32666776 -1.0122048 -0.70735157 -0.40248236 -0.6509514 -1.5153332
1.6180202 -1.1196952 0.089369 -2.1235313 -0.5736833 -0.4257005 -1.522039 -0.1073613
0.7723891 -0.40469405 -2.0426571 0.76319766 0.33519158 -0.36110416 -0.3141331 1.7688303
0.2301963 -0.5933398 0.9706424 0.07746198 0.5416234 -1.0695142 -1.3421196 -0.61994714
-0.19269556 1.5167247 1.0150408 1.4624104 -0.71297574 -0.7287905 0.66311896 0.7653523
0.86184955 -0.2837996 0.25698787 0.70966166 -0.7879716 0.59232277 -0.669409 1.54906
0.9465291 1.6890266 -0.2617936 -0.1364796 -0.3100805 0.26359427 1.5300564 0.31967118
-0.80815464 0.26225007 -1.4734546 0.5528936 0.97451514 1.7066771 -0.5323387 1.3656522
1.1991442 1.274332 -2.468894 2.139638 -1.162774 2.745447 1.7061874 0.00022145639
1.2587171 0.8403804 0.30388445 1.071909 -0.8140936 -0.09291994 -0.008078435 -0.37010196
-1.2871019 -0.44735622 2.0044837 -0.4882521 0.7350324 0.84909743 1.0088147 -0.7986712
1.0249859 -0.5396646 -0.56527114 0.9924936 0.2915441 0.15096985 -1.3330953 1.2188146

artist_embedding.weight f4 [225, 64]
00000000: 0000 0000 0000 0000 0000 0000 0000 0000
00000010: 0000 0000 0000 0000 0000 0000 0000 0000
00000020: 0000 0000 0000 0000 0000 0000 0000 0000
00000030: 0000 0000 0000 0000 0000 0000 0000 0000
00000040: 0000 0000 0000 0000 0000 0000 0000 0000
00000050: 0000 0000 0000 0000 0000 0000 0000 0000
00000060: 0000 0000 0000 0000 0000 0000 0000 0000
00000070: 0000 0000 0000 0000 0000 0000 0000 0000
00000080: 0000 0000 0000 0000 0000 0000 0000 0000
00000090: 0000 0000 0000 0000 0000 0000 0000 0000
000000a0: 0000 0000 0000 0000 0000 0000 0000 0000
000000b0: 0000 0000 0000 0000 0000 0000 0000 0000
000000c0: 0000 0000 0000 0000 0000 0000 0000 0000
000000d0: 0000 0000 0000 0000 0000 0000 0000 0000
000000e0: 0000 0000 0000 0000 0000 0000 0000 0000
000000f0: 0000 0000 0000 0000 0000 0000 0000 0000
00000100: d378 35be df75 5f3f 6355 733e 8aba b33f
00000110: 65a3 b93f c812 dfbe 1c8c 233f e81f 953f
00000120: cf17 28bf 2299 a1bf 576a 9bbf e6c4 0fbe
00000130: 28ef 973e d14b 8bbf ebc5 d5bf 4592 7f3f
00000140: d117 df3e c2a8 aebd 9588 d43f ff06 a8be
00000150: 9654 ebbb 76d6 94bf 35b4 243f c858 fbbe
00000160: 754a febe 730f 1d3e 1d68 4abf 4912 283f
00000170: c418 97be 99bc 993f af37 9cbe d226 f4bf
00000180: ba56 8ebe 70ee 62bf 9e25 fabe f944 493f
00000190: 9a8c dcbe bd6b 97be 1d8c 953f cb05 b9be
000001a0: 1f67 c8be e603 303f 6d74 40bf 2770 7b3f
000001b0: d4b3 963f baf5 d9be d454 693e fe6e 4fbf
000001c0: 9d9b 533f e5ff 4fbf 69e5 fcbe 01a0 84bf
000001d0: 2d67 04c0 942f 1fbc f76f 783f a734 843e
000001e0: a0ac b83e 3d4d 8cbf 7eef 34be a1e6 853f
000001f0: 8175 ab3f c62e 9c3e 6511 80bf 6252 d03e
00000200: c1c5 4f3e ab77 7bbf cf46 56bf 601f 5c3f
00000210: 586e 9a3f 77a0 1a3f 557a 833f 2ddb 133e
00000220: 8c54 7bbd eee6 2c3e 161c c3bf 9594 473f
00000230: c080 283f 7256 27bf b071 cd3f 10d4 05c0
00000240: 7abb af3f 2c43 19bf e1ea c7be 6ad5 5c3f
00000250: 4bb3 38bf d2a8 b23f 7866 c73f 8eee cebe
00000260: 0c8e 8bbe 824a 833f 55ec cfbe 3014 bfbf
00000270: e036 a13f 6688 53bf 6ab8 41bf cc01 04c0
00000280: 76bb afbe 7695 863f b4aa d9be dc7c d2bf
00000290: c5a6 04bd d4c8 313f ec42 c9bf 1fa3 a9be
000002a0: 2057 8c3f 5bb1 d1be fd1a 7d3f 330a c03f
000002b0: b710 16be ca63 d03e 6c31 623e 34f5 b73f
000002c0: 10cb 883f da26 d8bd 2d86 693f d82d c53f
000002d0: 2a67 253f 5d0f e9be bf15 8d3d 4268 a43f
000002e0: afd4 f63e bf65 eb3e cc61 643f 5632 08be
000002f0: eeac ae3f 86ac 5b3f 9c52 df3f 1765 4840
00000300: 4429 2a40 8ded 1cbf 91e5 97bf 6201 f3bf
00000310: 992c 08bf dc91 013f 1ca5 6fbe 77ad 31bf
00000320: 1cf2 4d3e 515a aa3e c416 933f da50 513e
00000330: 918d a13d 22a9 05bf 07d4 873f 9e9f 773f
00000340: b18d 523d 0f00 4e3f 63bf 103f f1b2 a3bf
00000350: ebfd 243e 9b12 cebf 0c37 3bbf 17c6 973f
00000360: 38d1 2b3f 96ce 12bf b342 563f 7a95 27bf
00000370: ad9f 16c0 b360 21be de38 023e 3508 7d3e
00000380: 78cb 733f 0397 37bf dd3b 0abf 1180 2cbf
00000390: d943 5c3e 78d5 76bb 3751 43bf 6626 57bf
000003a0: 1df2 983f 2fb0 54bf e731 aabf be03 2c3e
000003b0: 34e8 b6be a426 853f a5a8 9cbf ddf6 e73e
000003c0: 942e 0d3f 0666 ef3e 7b6f 59be b7c9 3940
000003d0: 5ae0 45bf de27 d03b f8e8 ddbe 7514 d83e
000003e0: b83a 61be 9071 17bf f663 65bf cd52 f43f
000003f0: 0e4e 8f3f 8e92 efbf c6cb edbe d000 933f
0.0 0.0 0.0 0.0 0.0 0.0 0.0 0.0
0.0 0.0 0.0 0.0 0.0 0.0 0.0 0.0
0.0 0.0 0.0 0.0 0.0 0.0 0.0 0.0
0.0 0.0 0.0 0.0 0.0 0.0 0.0 0.0
0.0 0.0 0.0 0.0 0.0 0.0 0.0 0.0
0.0 0.0 0.0 0.0 0.0 0.0 0.0 0.0
0.0 0.0 0.0 0.0 0.0 0.0 0.0 0.0
0.0 0.0 0.0 0.0 0.0 0.0 0.0 0.0
-0.17721872 0.8728923 0.23763041 1.4041302 1.4502989 -0.43569016 0.63885665 1.1650362
-0.6566133 -1.2624857 -1.2141827 -0.14039955 0.2967465 -1.0882512 -1.6701025 0.99832565
0.43572858 -0.08528282 1.6604182 -0.32817838 -0.0071817143 -1.1627948 0.64337474 -0.49091172
-0.4966618 0.15337925 -0.79065114 0.656529 -0.29511082 1.201068 -0.30511233 -1.9074347
-0.27800542 -0.88645077 -0.48856825 0.7862087 -0.4307602 -0.29574385 1.1683384 -0.36137232
-0.39141175 0.6875595 -0.7517765 0.98218006 1.1773629 -0.42570287 0.22786266 -0.81028736
0.8265932 -0.8124984 -0.49393776 -1.0361329 -2.0687973 -0.009715933 0.97045845 0.2582142
0.36069202 -1.0961071 -0.17669484 1.0461007 1.3395234 0.30504435 -1.0005308 0.40687853
0.20290281 -0.98229474 -0.83701795 0.85985374 1.2064924 0.604011 1.0271708 0.14439078
-0.061359927 0.16884968 -1.5242946 0.77961093 0.65821457 -0.6536628 1.605032 -2.0910683
1.3729088 -0.5986812 -0.39046386 0.86263144 -0.7214858 1.395777 1.5578146 -0.40416378
-0.2725681 1.0257113 -0.40609995 -1.4928036 1.2594872 -0.8263 -0.7567202 -2.0626097
-0.3432271 1.0514362 -0.4251305 -1.6444354 -0.032385606 0.69447064 -1.5723548 -0.33132264
1.0964088 -0.40955624 0.98869306 1.5003113 -0.14654814 0.40701133 0.22089165 1.4371705
1.068697 -0.10554285 0.9122036 1.5404615 0.6461054 -0.45519534 0.06888913 1.2844317
0.4820914 0.45976064 0.89211726 -0.13300452 1.3646524 0.85810125 1.7447085 3.13117
2.6587687 -0.61299974 -1.1866933 -1.8984797 -0.5319305 0.5061319 -0.23402828 -0.6940531
0.20111889 0.3327203 1.1491323 0.20440999 0.0788833 -0.522112 1.0611581 0.9672793
0.05140466 0.8046884 0.5654203 -1.2788984 0.16112487 -1.6099428 -0.7313087 1.1857327
0.6711612 -0.57346475 0.83695525 -0.6546246 -2.3534958 -0.15759544 0.12717006 0.24710162
0.95232344 -0.717148 -0.53997594 -0.67382914 0.21510257 -0.0037663858 -0.762958 -0.84042966
1.1948887 -0.83081335 -1.3296479 0.16798303 -0.35724032 1.0402417 -1.2238966 0.4530553
0.551492 0.46757525 -0.21233933 2.9029367 -0.7729546 0.006352409 -0.43341804 0.42203107
-0.21995056 -0.5915766 -0.89605653 1.9087769 1.1195695 -1.87166 -0.4644453 1.1484623

feedback_embedding.weight f4 [4, 64]
00000000: 0000 0000 0000 0000 0000 0000 0000 0000
00000010: 0000 0000 0000 0000 0000 0000 0000 0000
00000020: 0000 0000 0000 0000 0000 0000 0000 0000
00000030: 0000 0000 0000 0000 0000 0000 0000 0000
00000040: 0000 0000 0000 0000 0000 0000 0000 0000
00000050: 0000 0000 0000 0000 0000 0000 0000 0000
00000060: 0000 0000 0000 0000 0000 0000 0000 0000
00000070: 0000 0000 0000 0000 0000 0000 0000 0000
00000080: 0000 0000 0000 0000 0000 0000 0000 0000
00000090: 0000 0000 0000 0000 0000 0000 0000 0000
000000a0: 0000 0000 0000 0000 0000 0000 0000 0000
000000b0: 0000 0000 0000 0000 0000 0000 0000 0000
000000c0: 0000 0000 0000 0000 0000 0000 0000 0000
000000d0: 0000 0000 0000 0000 0000 0000 0000 0000
000000e0: 0000 0000 0000 0000 0000 0000 0000 0000
000000f0: 0000 0000 0000 0000 0000 0000 0000 0000
00000100: 4a87 543f a50f 4bbf d3ef dfbd dbd5 e13f
00000110: 2375 b0bf 8ca9 c93f cccf 81bf 608e abbc
00000120: adf2 58bf dd98 8ebe d8ac 183e 6031 173f
00000130: e1bb ac3f 9529 9ebe 4143 9f3f a808 3740
00000140: 23bc ca3f 4e8a 943f d944 0c3f 56bc 8a3f
00000150: 4331 d0be 21c1 1340 72ae 963f 96bf b43d
00000160: 1560 413e d2ec 0940 b8c7 b1be 885c 8a3f
00000170: f709 27bf ffff 92bf 4cb1 b5bf 420d b33e
00000180: bf6f a8bf d271 bb3f 528c 4640 6037 9b3f
00000190: 5767 a03f c6db ef3e 2935 6ebd 014d 453f
000001a0: 3cc0 61be c7cc cfbf c049 7d3f ddff cb3f
000001b0: 2f5a 65bf c4bd 10bf c27e 1bbf 89db c63e
000001c0: 443c 8bbe eed3 d9bf 2e9c efbd 011d 61bf
000001d0: 20bc 94bf 223b cf3f 7643 cfbf ea18 213f
000001e0: 31ed 8cbf f26a cfbe 2f88 92bf da59 f0bd
000001f0: 1f76 a4bf cbd0 ac3f 32ff af3f adaf f1bf
00000200: c73e 40bf 302e 703f 1f98 833f 8864 12c0
00000210: f4ed 42bf 72ce cdbf 44d3 3dbf 5a43 b53e
00000220: 3189 9fbf 3896 ddbe 951f 19bf da29 babe
00000230: 6e1a 203f 7de4 ce3f 42ae 483e 9d40 1c3f
00000240: 850d 94be 7bee c7be 7cdc 26bf 354b 36bf
00000250: 64be f3be b186 39bf d095 57bf e81a b3bf
00000260: acf7 d93f 105c 673e 04c0 42bf be35 dc3d
00000270: 99c0 97bf dcf0 023f 8bb4 4c3e 42e3 17bf
00000280: ed0d b9be 15e2 833f aaeb 92bf 148b 9fbe
00000290: 9f21 abbf 91b2 f53f 8f23 cdbf 5856 b7bd
000002a0: 7775 abbd d8f3 e13e 1499 0dbd ceb9 a43f
000002b0: b633 9b3f a75f ac3e 6725 f0be 9ca0 7dbf
000002c0: 131f dbbf ec99 1f3e 8e2b 4b3f 10cb a53e
000002d0: a744 18be 6c6e cdbf cb91 3d3f 5f2d ffbf
000002e0: 8bd1 883f 3a31 0b3f d0da 833f c110 913e
000002f0: 5e06 18be d9ad 8cbf c444 3bbf a643 62be
00000300: 47f5 1b3f 4809 c5bf 980b 403f 7edb 253e
00000310: 0d9f 153e bd15 dcbe e487 04bf 2df4 13be
00000320: f835 ea3e baeb 17be bb68 93bf f231 42be
00000330: 1efb aa3e 922b 0e40 3b98 a1bf 82b3 0cbd
00000340: 2809 62bf 52ec f7bf cc4f bdbd 2f71 343f
00000350: 7cd6 9dbc a084 043f 045a d3bf 4adf 1b3f
00000360: c041 d3bf 63c8 313f d231 3ebf d0f5 0dbe
00000370: ca57 b53a afea 61be 0047 4dbf 1cd1 90be
00000380: b54f 5b3f b6b6 893e 2560 7bbf a2e3 043f
00000390: 3d24 8bbf 74f6 5cbf 142a 63bf cd55 843f
000003a0: 518a f53d e72f e3be b266 2bbf 7507 073f
000003b0: 2850 803f e377 343f d17b 58bf a282 8dbe
000003c0: e057 57be 487f eabd 8fa5 783f b883 bcbf
000003d0: 1be2 bbbd bc28 1cbe 07b4 563f 73c6 503f
000003e0: 9476 1bba 1fc0 703f 7200 773f ca17 4a3e
000003f0: 3926 bd3e 70fa 7f3f 1709 043f 5301 43bf
0.0 0.0 0.0 0.0 0.0 0.0 0.0 0.0
0.0 0.0 0.0 0.0 0.0 0.0 0.0 0.0
0.0 0.0 0.0 0.0 0.0 0.0 0.0 0.0
0.0 0.0 0.0 0.0 0.0 0.0 0.0 0.0
0.0 0.0 0.0 0.0 0.0 0.0 0.0 0.0
0.0 0.0 0.0 0.0 0.0 0.0 0.0 0.0
0.0 0.0 0.0 0.0 0.0 0.0 0.0 0.0
0.0 0.0 0.0 0.0 0.0 0.0 0.0 0.0
0.83018935 -0.79320747 -0.10934415 1.7643389 -1.3785747 1.5754867 -1.014154 -0.020941913
-0.84745294 -0.27851 0.14909685 0.59059715 1.3494836 -0.308911 1.2442399 2.8599033
1.5838665 1.1604707 0.54792553 1.0838726 -0.40662584 2.3086627 1.1771986 0.088256046
0.18884309 2.1550794 -0.34722686 1.0809488 -0.6524958 -1.1484374 -1.4194732 0.34971052
-1.3159102 1.464411 3.1023145 1.2126274 1.2531537 0.4684736 -0.058156166 0.77070624
-0.22045988 -1.6234368 0.9894066 1.5937458 -0.89590734 -0.5653956 -0.6074029 0.38839367
-0.27194417 -1.7017801 -0.11699711 -0.8793488 -1.1619911 1.6189921 -1.6192462 0.6292864
-1.1009885 -0.4051128 -1.144781 -0.11735888 -1.2848548 1.3501219 1.3749754 -1.8881737
-0.7509579 0.93820477 1.0280799 -2.287386 -0.7614434 -1.6078627 -0.7415049 0.35402948
-1.2463742 -0.4327867 -0.59813815 -0.36360055 0.6254033 1.6163479 0.19597724 0.6103609
-0.28916565 -0.39049134 -0.6518018 -0.71208507 -0.47606194 -0.7247115 -0.8421297 -1.3992586
1.7028708 0.22593713 -0.7607424 0.10752438 -1.1855651 0.5114877 0.19990747 -0.5933114
-0.36143437 1.030337 -1.1478169 -0.31160796 -1.3369635 1.9195119 -1.6026477 -0.08952016
-0.08372014 0.4413135 -0.034569815 1.2869203 1.2125156 0.33666727 -0.46903536 -0.99073195
-1.7118858 0.1558606 0.79363334 0.32381487 -0.14869939 -1.6049323 0.7405059 -1.9935721
1.0688947 0.5437199 1.0301151 0.28333095 -0.14846179 -1.0990554 -0.73151803 -0.22096118
0.6092114 -1.5393457 0.7501769 0.16197011 0.14611454 -0.42985335 -0.5176985 -0.14448614
0.457443 -0.14836016 -1.1516336 -0.18964365 0.33394712 2.2214093 -1.2624582 -0.03435088
-0.8829522 -1.9368994 -0.09243736 0.70485204 -0.019267313 0.5176487 -1.6511846 0.6088759
-1.650444 0.6944639 -0.7429477 -0.13863301 0.0013835367 -0.22062181 -0.8018646 -0.28284538
0.856685 0.2689721 -0.9819358 0.5190984 -1.0870434 -0.8631356 -0.8873608 1.0338684
0.119892724 -0.44372484 -0.66953576 0.52745754 1.0024462 0.7049543 -0.8456393 -0.27638727
-0.21029615 -0.11450058 0.9712762 -1.4727697 -0.091739856 -0.15249914 0.8386845 0.8155281
-0.000593045 0.94043154 0.96485054 0.19735637 0.36943224 0.9999151 0.5157637 -0.76173896

transformer_encoder.layers.0.self_attn.in_proj_weight f4 [192, 64]
00000000: 21b7 2a3e 2953 3abc 42b3 3a3e a96f 28bd
00000010: d4c9 223e 97f0 0f3e e7e6 b0bb c457 d83c
00000020: c370 bb3b e0f0 15be 2c61 993c 129c 90bc
00000030: f21d a43d ea57 c93b 5da6 d63d ebb9 393e
00000040: 7634 793c 097b e2bd ba06 d03d 0911 1a3e
00000050: a40c fabd e8f6 323e cc99 643d a0bb 8cbd
00000060: bd3f cfbd e528 533e ef0d 773d 9883 22be
00000070: 1b80 65be feb5 78be 573e f03d 0346 45bd
00000080: 180f c1bd 4364 053e 2955 26bd 00af 0f3d
00000090: dc4e abbd 52a6 df3d f879 9fbd 2e38 963d
000000a0: 4219 3ebe 9324 733b 902e 2f3e 3a19 82bd
000000b0: 06e5 253e 96f2 bb3d eb1f 87bc ae81 3b3e
000000c0: a7a8 51bd f2a4 34be 31c3 d13d 8214 163e
000000d0: 7e5e 013e 3a08 ccbd f842 a33d 9b02 f23b
000000e0: 5be3 923c 56dd cd3a 2fb1 fbbd f631 3cbd
000000f0: 16d7 fc3c c252 bebc bd55 efbd 5374 69bd
00000100: 81dc a43d e112 29be 58ce 623d fc78 33bd
00000110: 70f6 5e3e 9778 02be 9755 a0bc 404f 943d
00000120: 7a8a 043d 7428 c8bc 0c2e 31bd d127 093e
00000130: 9589 f8bd d352 903d 35b8 ddbd 5ad3 8cbd
00000140: 886f c63d 1b2a fbbd acd5 1a3e 1326 283e
00000150: 09ea fd3d 299a 6f3d d5c7 723d 5a9f b63d
00000160: 05f4 88bc b450 39be 31cf 6bbc be2c 083d
00000170: 0176 413d 2a18 363d 5518 cabd e93f aa3c
00000180: fd29 21be 7408 653d bc86 8cbd 8cea 193d
00000190: 3426 953d be8c 013e 7f3c e83b 64f1 e4bd
000001a0: ffe6 cfbc 0c4f f93d fc66 9e3d 3613 703e
000001b0: f3e4 44be 5556 3cbe f21e aebd 7cf3 80bd
000001c0: fd74 08bd cd39 5b3e 0162 5f3d 9a80 2d3d
000001d0: a455 b93b 89d6 d23d 98ce 80bc 4f6c 913b
000001e0: 558b 18bb 2c57 90bd b369 82bc 56a3 5bbe
000001f0: 9941 213c 23c9 d63c 85cb b9bd aa63 0bbd
00000200: 8a90 9ebd 5b60 16bd 42a1 f33d fbc0 103e
00000210: 119a 49bc 39e9 0c3d 0d71 9c3c 6a41 98bb
00000220: 9645 29bc b8a7 f7bd 7441 a2bd 2a87 fc3d
00000230: efbf 4d3e 08b6 81bd 3080 4d3e ec56 903d
00000240: 7eb8 10be 6745 82bd 5502 7cbd ff49 e13d
00000250: 1ea2 1c3e 88cf 363e a9be a8bd 0b5b eb3d
00000260: c0b0 a4bd e931 5c3d 7183 38bc 9dc4 1abe
00000270: e30c 693d dea7 ffbd cb15 54be 7402 653d
00000280: 0dff 0dbd 2f60 773d f67b 1e3e 9426 ef3d
00000290: 3d6f 1c3e 94bd 3abe a9d8 5ebe b723 223e
000002a0: 57f0 193e 7d85 893d e011 48be 820c 873c
000002b0: 6127 1abd 39e0 4bbd 6335 0cbe 3b52 b6bd
000002c0: b2da 9bbd 2a5e 223d 654f 63bc ff31 093c
000002d0: 5152 cebd d429 563e f451 513e c7ee 3b3e
000002e0: af1d 25be d559 443e e835 b6bd a16c a23e
000002f0: 3108 68be 2607 013e 64d7 87bd fd60 c6bb
00000300: eff8 e53b fa92 d13d 3e1e 9dbd e5ac aebb
00000310: 80be 62bd 9498 2fbe b9cb 303d 9ad1 9f3c
00000320: 06e0 323d 5546 aa3d 5ca6 303e 93cd a2bd
00000330: ecc3 d2bc a252 c5bd f69f 12bd 3175 40be
00000340: 0a84 23be 1b7b c3bd 5a97 273e 2e36 e8bd
00000350: ddd2 f43d 2087 3bbc 6662 34be 07c4 94bd
00000360: 1eee efbc ce5d e03c e2ce 8fbb 6f22 60be
00000370: b227 b4bd 74d1 babd 38bf 8a3e 45b1 9f3d
00000380: 555f 0e3d f176 83bd 0576 00be fcb1 03bd
00000390: bd2d b73d 0939 6c3e 2c44 2f3d fbe1 943c
000003a0: f07d cf3d b98c b4bd a9b2 713d a1c8 e53d
000003b0: 6498 7cbe 34cb 4ebd 73ef b7bc ba98 b93d
000003c0: f550 ff3b 82f8 66bd 4090 383c c236 383e
000003d0: 8c1e bfbd 3053 21be 1437 6dbe cceb 483d
000003e0: 2a8d 463d c36e f2bd 35bc 363e f001 a7bd
000003f0: db50 f23d a5fd 933d e48f 39bb 6fff e3bd
0.1667142 -0.011372366 0.18232444 -0.041122112 0.15897304 0.14056621 -0.0053986195 0.026409037
0.0057202294 -0.14642668 0.018723093 -0.017652545 0.08013524 0.0061445134 0.1048095 0.18137328
0.015210262 -0.11058623 0.10157533 0.15045561 -0.12209442 0.17477 0.055810735 -0.06871724
-0.10119579 0.20621069 0.060316022 -0.15870512 -0.2241215 -0.24288175 0.117306404 -0.04816247
-0.09426707 0.13026528 -0.04060856 0.035079002 -0.083646506 0.10920395 -0.077869356 0.07334934
-0.18564323 0.0037100657 0.17107606 -0.06352468 0.16200647 0.09177129 -0.016494712 0.18311188
-0.05118623 -0.17641047 0.10242308 0.1465626 0.12633702 -0.099625066 0.07971758 0.0073855645
0.017930677 0.0015706222 -0.122896545 -0.045946084 0.03086428 -0.023232821 -0.11686275 -0.0569957
0.0804987 -0.16511108 0.055372566 -0.04381655 0.21773696 -0.12741314 -0.019572062 0.07241678
0.032358624 -0.024433352 -0.043256804 0.13394095 -0.12135617 0.070470475 -0.1082615 -0.068762496
0.09689242 -0.1226389 0.15120572 0.16420774 0.12398154 0.058496628 0.059272606 0.08917113
-0.01671792 -0.18097192 -0.01439266 0.033245794 0.047231678 0.04445664 -0.09867922 0.020782428
-0.15738674 0.055916265 -0.06861636 0.037577197 0.07282677 0.12651345 0.00708729 -0.11178854
-0.025378702 0.1217328 0.077344865 0.23444828 -0.19227962 -0.18392308 -0.08501996 -0.06296441
-0.033314694 0.21408768 0.054536823 0.042358972 0.005655961 0.102948256 -0.015723512 0.00443796
-0.0023276408 -0.07047877 -0.015919542 -0.21449026 0.0098423 0.026218956 -0.090720214 -0.034030594
-0.077424124 -0.036712985 0.11895992 0.14136116 -0.012304799 0.034402106 0.019096876 -0.00464647
-0.010331532 -0.12092537 -0.079226404 0.12330468 0.20092748 -0.06333548 0.20068431 0.07047829
-0.14132878 -0.06360894 -0.06152566 0.11000442 0.15296218 0.17852604 -0.082394905 0.114919744
-0.08041525 0.053758536 -0.011261807 -0.15114065 0.056897055 -0.1248319 -0.20711438 0.055910543
-0.034667064 0.060394462 0.15476975 0.1167728 0.15276809 -0.18236381 -0.21762337 0.15833937
0.15033089 0.06714914 -0.19538069 0.016485456 -0.03763521 -0.049774382 -0.1369224 -0.08902403
-0.07610072 0.039640583 -0.01387391 0.008373736 -0.10074294 0.20914394 0.20441419 0.18352805
-0.16124605 0.19174893 -0.088970006 0.31723502 -0.22659375 0.12600383 -0.066328794 -0.0060540424
0.0070182006 0.10233112 -0.07671784 -0.005330669 -0.055357456 -0.17148048 0.043163035 0.019509126
0.043670677 0.08314196 0.17250961 -0.079493664 -0.025728188 -0.096349016 -0.035797082 -0.18794705
-0.15968338 -0.09544965 0.1636633 -0.11338459 0.119542815 -0.0114457905 -0.17615661 -0.07263952
-0.029288348 0.02738848 -0.004388676 -0.21888135 -0.08796634 -0.09121981 0.27099013 0.07797483
0.034758884 -0.06419171 -0.12545021 -0.03215216 0.08944271 0.23068632 0.042789623 0.018174162
0.101314425 -0.08815903 0.059008274 0.112199076 -0.24667507 -0.05048676 -0.022453045 0.090623334
0.0077916333 -0.05638934 0.011264861 0.17989638 -0.09331998 -0.1575439 -0.23165542 0.049053
0.04847447 -0.11837532 0.17845233 -0.081546664 0.11831828 0.07226113 -0.0028314525 -0.111327045

transformer_encoder.layers.0.self_attn.in_proj_bias f4 [192]
00000000: b993 173e 6d93 5a3d 3bc5 0b3e 9b7d ddbc
00000010: 2aae 2e3d 0030 05be 8b02 09bd 5d8c e5bd
00000020: 75fb 01bd 0b33 113e 937b 1ebd a867 03be
00000030: 2c94 c8bd c3c0 953d 7761 42be 6a46 cfbb
00000040: a5c8 743e a916 763c f862 6c3e 9feb b7bd
00000050: ea37 b0be 9dcd eb3d ec96 c7bd e33a 2e3e
00000060: 631c 46bd 3e11 03be 0bf5 2f3d fdf1 033e
00000070: 09ca e43d 5b80 153d 2c3a 78bd c123 37bc
00000080: a000 f4bd c1c1 dbbd 588a 9bbb ba00 a83d
00000090: 0a0b cc3d b1e5 9a3d 4964 32bd 2980 ba3d
000000a0: f686 8f3c 5045 9fbc ea22 16be a578 b53c
000000b0: 8abc 0a3d 214e 54bd 2585 adbc 4785 30bd
000000c0: 9bf0 0b3d 70f0 f03d c5e1 0fbc e94d e13d
000000d0: 6313 45bd cbae e53d 9323 8c3c 2c2c 1c3d
000000e0: 6e6f f9bb 0072 2a3d fed9 193b e7c6 a0bd
000000f0: 5e29 babd ed21 c33c 9946 a63c 105d 453b
00000100: bfd7 a93a c1a7 bdbb 7294 ca3b b222 edbb
00000110: a883 30bc c337 f1bb 986e e23a 17d4 7bbc
00000120: d2ec 31bc 0174 4f3b cb16 1fbc 1eb9 633b
00000130: cb3c 04bc a356 af3a 8215 8cbc 599d 7b3c
00000140: f215 6c3c bace 97bb 0fdb e2ba ed3e 903b
00000150: 09b8 38bc 03cc aa3a a4d7 4abc 8bde 1639
00000160: c014 e03a 3034 3cbb d836 c8bb f789 4e3c
00000170: 88d5 fe3b 561c aaba 6b6d bbbb b426 993b
00000180: 5a3f 4bbc 7775 043c 7e62 2dbb 9fee 133c
00000190: 0d7f 873b 8baf b93b acca 8f3a 191d 823b
000001a0: 115c 8eba 5c7c 593a 5d0e fcbb bcd0 0d3b
000001b0: a374 af3a 08b8 c6bb eb61 a1bb d21d d43b
000001c0: 2498 cb3b 6e1c 773b e371 8ebb 7a23 d9bb
000001d0: ead1 9f3b 9a9e 9b3b 694b 99bb 26a5 413b
000001e0: 11d6 9b3b b342 473b d51c 2cbc 0a05 c2b8
000001f0: 9f07 baba 2102 453b 0389 30bc 0848 08bc
00000200: c142 c0bc b9db ec3c db8c 8ebd 3714 353d
00000210: c3ec 883b e3d8 7c3b 9c61 dd3b a9c8 49bd
00000220: 92fe a8bc 0592 12bb 8b71 b73c 9045 29bd
00000230: a2af a33b 70a1 14bd fff3 41bc 4f8a 98bc
00000240: a3b6 08bd 962c 803b a953 f2bc dc3a 423c
00000250: d00c 073d 74a7 a23c edf2 9d3d 0e5b babd
00000260: 73b5 d33c 614c 843d 0f42 7abc ca72 993d
00000270: 29f1 5fbd b855 43bc 61e7 02bd 8021 013d
00000280: 02c3 2cbd 0b16 09bd 12df ad3d c3a0 903d
00000290: 3b38 033d ef5f d63b 242f 88bc 1030 a2bd
000002a0: 64b1 2fbc fb75 b439 d260 473c 87c2 be3c
000002b0: 56a8 b23c cdae c53b fa01 14bd 9fc4 07bd
000002c0: 07b4 873d 98ec 213d d11d 813c 9145 83bc
000002d0: 064b d83c 7c5f 3c3d 8431 7e3d 8ff4 743d
000002e0: fc21 a53b e6d4 c23a 0d0b 4ebd 7782 68bd
000002f0: e9aa 0a3c 9ac0 153d b2f2 12bd 4d2f 2b3d
0.14802445 0.053363252 0.13649456 -0.027037432 0.042646565 -0.13006592 -0.03344969 -0.11208413
-0.03173395 0.14179628 -0.03869207 -0.1283251 -0.097938865 0.07312157 -0.18982492 -0.0063255327
0.23904665 0.015020051 0.23084629 -0.08980488 -0.3441766 0.11513827 -0.09745583 0.17014651
-0.048366915 -0.12799546 0.0429583 0.1288528 0.11171348 0.036499362 -0.060602352 -0.011177958
-0.11914182 -0.10730315 -0.0047467165 0.082032636 0.09963043 0.075633414 -0.04355267 0.09106476
0.01752041 -0.01944223 -0.14661756 0.022152254 0.03387121 -0.051832322 -0.021181652 -0.043095853
0.034165006 0.1176461 -0.008781855 0.11001188 -0.04811419 0.1121498 0.017106807 0.038128063
-0.0076121604 0.041612625 0.002347588 -0.078504376 -0.090899214 0.023819888 0.020297335 0.0030115284
0.0012957974 -0.00578782 0.006182247 -0.007236802 -0.010773577 -0.0073613836 0.0017275391 -0.01537039
-0.010859685 0.0031654837 -0.009710024 0.003474779 -0.008071135 0.001337726 -0.0171001 0.015357339
0.014409529 -0.004632798 -0.0017307716 0.0044020326 -0.011274346 0.0013030771 -0.012380514 0.00014388018
0.0017096028 -0.002871763 -0.0061100535 0.012606136 0.0077769198 -0.0012978415 -0.0057198307 0.004673803
-0.012405241 0.008084646 -0.002645641 0.00902906 0.0041350187 0.0056666783 0.0010970435 0.003970754
-0.0010861178 0.0008296424 -0.007692142 0.0021639308 0.0013386201 -0.0060644187 -0.004925003 0.0064732814
0.006213205 0.0037706154 -0.0043470724 -0.0066265436 0.0048773186 0.0047491314 -0.004678179 0.00295479
0.0047557433 0.0030404746 -0.010504921 -9.2515795e-05 -0.0014192945 0.0030061083 -0.010774854 -0.008317955
-0.02346933 0.028913366 -0.0696046 0.04420873 0.004178615 0.0038581423 0.0067560207 -0.04926363
-0.020629201 -0.0022364866 0.022393009 -0.041326106 0.0049953023 -0.03628677 -0.011837958 -0.018620638
-0.0333773 0.003911565 -0.029580908 0.0118548535 0.032971203 0.019855238 0.0771235 -0.090993986
0.025843358 0.064598806 -0.015274539 0.074925974 -0.054673348 -0.011922292 -0.03195894 0.03152609
-0.04217816 -0.033468287 0.08489813 0.07061913 0.032036047 0.006542198 -0.01662404 -0.079193234
-0.010723446 0.00034420178 0.01216908 0.023286117 0.021808784 0.006032801 -0.036134697 -0.033146497
0.06626134 0.039532274 0.015761288 -0.016024383 0.026402961 0.0459895 0.06205894 0.05980354
0.0050394516 0.0014864474 -0.050303508 -0.056765046 0.0084636 0.036560632 -0.035875984 0.041793156

transformer_encoder.layers.0.self_attn.out_proj.weight f4 [64, 64]
00000000: 9814 ec3b 9962 403d 4a2e 223d 0df8 46bc
00000010: d930 a13c 0e3d b3bc cf69 15bd a42c 51bd
00000020: 31d2 18bd f139 cb3c 653c 0b3c 1554 f83c
00000030: fe8c 0cbd 34e4 923c 6afb 95bc ce0f 36bc
00000040: 953c 5abc e467 20bd f6e4 03bd b97f 6bbc
00000050: 385e d53c fdcf 243c 4b03 02bd ac57 f43d
00000060: 7565 9a3d b708 a0bc cd0e 4e3c 9836 0d3c
00000070: 1289 2abd 2450 d13d d96b 203c f584 a9bd
00000080: d7a7 8abc 6a79 05bd 231d 213d 806e 1b3d
00000090: 55e0 b53c 2f21 d9bb 9563 56bc 3f42 64bd
000000a0: dfa3 15bd 7032 c3bb e9d5 493d 2035 e3bb
000000b0: 830b 37bd c121 7b3b f723 503d 4ac6 183d
000000c0: 22a1 2b3d aba9 fe3b 3407 3d3c 0027 263d
000000d0: 2093 293d 3dff 98bc 0ffa a9bc 29ed b33b
000000e0: 6b4a 8ebd 151c 373d 585f 1fbd 8492 023d
000000f0: 219b 5a3c abc6 7c3d eb80 afbc 234e 39bc
00000100: 9c2f 033e 5e6c fbbc f5ce 95bc 3022 8cbd
00000110: fec7 e53c 6a50 943a ed4c 293d 2d68 c93d
00000120: fab4 9e3b bdd8 17bb 1b89 61bd c4df 82bc
00000130: 6e30 3e3d c4d6 93bd 34a0 12bd 333d 8f3d
00000140: 3098 77bd 270f 18bd ed60 7e3d 6a00 07bd
00000150: b0d2 b7bd 98fc 6ebc cd76 bebd e360 9cbd
00000160: 007e ac3c 5ccd a5bd 4d72 f5bc 3c44 5a3d
00000170: 1ac0 8e3d 3f83 b73d 6d82 42bc 2cfa 89bc
00000180: a546 16bb 400d 3a3d 6906 21bd e654 16bd
00000190: c699 ddbd 5dc2 11bd b25f bd3d 973d e53d
000001a0: b6fe 14bd bf27 f63b 1d01 dd3b b336 36bc
000001b0: 1e00 e2bb 5043 a6bd 2e48 703c 7ac9 833c
000001c0: c7e2 20bd 2e4b 21bd 20b7 0dbe ae41 53ba
000001d0: 05fa 3fbd ed81 39bc fa90 a83c 8927 893c
000001e0: a34a a93d e97b ee3c 09c2 4b3c 30fd 8bbd
000001f0: 6d7a 0dbd 0e87 9dbc dfc7 97bd c57a 023c
00000200: 61ac 0f3d 9369 723c 9c0e 67bb 15c0 6c3c
00000210: f82a 4ebd 8d9f 893c d348 8ebb 2f05 53bd
00000220: e42e bb3c e68c cebb 765c 103d dd24 2cbd
00000230: e66f 293d eb66 c53c 603c 04bc ec6d 123c
00000240: a285 7d3d 5349 78bd cd30 1f3c cb94 bd3c
00000250: 6a9e 4bbd b7c3 4d3d 1810 cbbb a6f2 ca3b
00000260: d10a 083d 5ac4 61bd 34e6 e23c a619 24bd
00000270: e2e6 453d e779 65bd 5db8 1b3d 3e5f 7d3c
00000280: cef3 663b baf5 eebc 6c78 0abd 9944 21bc
00000290: 2053 1d3c 9011 fd3c b515 603d 8775 10bd
000002a0: 5f4b fd3c 27bb 16bd 6cb7 9abc e1ec 203d
000002b0: a4b1 d83b e20b 8bbc 6218 5a3c 4cdb f83b
000002c0: 4bf2 543c c6d4 943d dce2 a2bc c356 e2bc
000002d0: 71ca 183d 9167 c43c a2f9 c6bc f18a 833c
000002e0: 5432 81bc 15d7 333b 6af1 21bd c47f ca3c
000002f0: 6e39 31bd 2caf 253d c6b4 7dbc e579 09bc
00000300: 6cbc 3b3d d7e9 0e3d 89b1 873b 60d2 bb3d
00000310: 2c29 e33c 8000 ebbc 3e2f e7bd 6285 903c
00000320: f664 a8bc 08fc 303c af05 09bc 4714 b7bd
00000330: 44fd 953d 93ff f2bd 3e77 15bd 9253 3d3d
00000340: 0aa8 093d a382 59bd b6db 053c 3070 2d3c
00000350: feed 25bb d712 22be 2e11 ca3d 5982 85bc
00000360: cfa7 c93d c53f 753d 2524 f6bc 3bbc cbbb
00000370: dde0 e7bc e207 b33c 36dc d93d 42bb 5c3c
00000380: 27fd 4ebc 2528 72bd 3399 153c 525e 8a3c
00000390: 939a 68bd 22ed cfbc f323 3ebc acc9 cb3c
000003a0: 79b4 65bd 5c97 88bb 6063 dc3c 251d 75bc
000003b0: c8bc 4cbd 275f 5cbc 60a6 85bd dd64 2ebc
000003c0: a202 ccbc f6f3 e13c e868 90bd cac0 d73d
000003d0: c558 07bd 6795 223d 7b3f 60bd 35d0 953d
000003e0: c8e4 23bd 0eec bd3b 33b3 19bd 7696 f5bc
000003f0: ff27 16bc ff9a 073d 3cc3 c9bc fb25 35ba
0.0072046034 0.04696903 0.039594926 -0.012144101 0.019676613 -0.0218797 -0.03647786 -0.051067963
-0.03730983 0.024807902 0.008498286 0.030313531 -0.034314148 0.017931081 -0.01830836 -0.011112167
-0.013320108 -0.039161578 -0.032200776 -0.014373713 0.026045904 0.010059354 -0.03174142 0.119307846
0.07538883 -0.019535406 0.012576771 0.008618973 -0.041634627 0.10220364 0.009791338 -0.08277313
-0.016925735 -0.032586493 0.039334428 0.037947178 0.022201696 -0.0066262702 -0.013085266 -0.05572724
-0.036533233 -0.0059569404 0.049276266 -0.006933823 -0.044688713 0.003831968 0.05081555 0.03729848
0.041901715 0.007771691 0.011537362 0.040564537 0.041400075 -0.018676395 -0.02074912 0.005490918
-0.06947788 0.044704515 -0.038909286 0.03187801 0.01334265 0.061712902 -0.021423778 -0.011310133
0.1281113 -0.030691322 -0.018287161 -0.06842458 0.028049465 0.0011315469 0.041333128 0.09834323
0.0048433514 -0.0023169958 -0.055062395 -0.01597584 0.046432905 -0.07218698 -0.035797313 0.06994095
-0.06044787 -0.037123825 0.062104154 -0.03295938 -0.08975732 -0.01458659 -0.09300003 -0.07635667
0.021056175 -0.0809581 -0.02996173 0.05328773 0.06970234 0.0896058 -0.011871916 -0.016842924
-0.002293029 0.045422792 -0.039312754 -0.03670206 -0.108203456 -0.03558575 0.09246768 0.11193388
-0.036375724 0.0075120623 0.0067445175 -0.01112144 -0.0068969866 -0.081183076 0.0146656465 0.016087282
-0.03927877 -0.039378338 -0.13839388 -0.0008058798 -0.046869297 -0.011322481 0.020576943 0.016742485
0.08266189 0.02911182 0.012436398 -0.06835401 -0.034540582 -0.019229438 -0.07411169 0.007963841
0.035076503 0.014795679 -0.003525651 0.014450093 -0.050333947 0.016799713 -0.0043421774 -0.051518615
0.022849508 -0.0063034175 0.035244428 -0.042027343 0.04136648 0.024096927 -0.008071035 0.00893734
0.06189502 -0.060616802 0.009716225 0.02314224 -0.049711622 0.050235476 -0.006196987 0.0061934767
0.03321344 -0.055118896 0.02769766 -0.040063523 0.04831589 -0.05602446 0.03801762 0.015464602
0.0035240534 -0.029169906 -0.03380625 -0.009843015 0.009602338 0.030892164 0.0547082 -0.035268333
0.030919729 -0.036799576 -0.01888629 0.039288405 0.0066129733 -0.01697344 0.013311477 0.0075945016
0.01299722 0.07267146 -0.019883566 -0.027629262 0.03730244 0.023975166 -0.024288956 0.016057463
-0.015771069 0.0027441431 -0.03953687 0.024719127 -0.04326766 0.04045026 -0.015484994 -0.008390878
0.04583399 0.034890976 0.004141037 0.09170985 0.027729593 -0.028686762 -0.112883076 0.017641727
-0.020555954 0.010802276 -0.0083631715 -0.089394145 0.07323697 -0.11865153 -0.03649067 0.046222277
0.03360752 -0.0531031 0.008170059 0.01058583 -0.0025318856 -0.158275 0.09866558 -0.016297506
0.0984646 0.05987527 -0.030046532 -0.006217507 -0.028305465 0.021854345 0.10637705 0.01347238
-0.012633598 -0.059120316 0.009130764 0.016890679 -0.05678804 -0.025381628 -0.011605251 0.024876438
-0.056080315 -0.004168434 0.026902854 -0.014960562 -0.049984723 -0.01345042 -0.06525874 -0.010644165
-0.0249036 0.02758215 -0.07051259 0.105348185 -0.03304364 0.039693262 -0.05474804 0.07315103
-0.040013105 0.005795962 -0.037524413 -0.029978972 -0.009164809 0.0331068 -0.024629228 -0.00069102616

transformer_encoder.layers.0.self_attn.out_proj.bias f4 [64]
00000000: 5c7a 10bd b71c a1bd f30c 94bd ed66 9d3d
00000010: 8eee 34bd 8ada 29bc a0a7 85bd 6f31 7dbd
00000020: 6aee bfbd 58e3 353d 1fe3 003e c3ac d33d
00000030: c5c8 583c 03ce 963a 11df 4c3e 2f1e 003e
00000040: 09d8 c43c a8d6 bf3d f0f5 f4bc c048 cb3d
00000050: 688d a2bc 99a2 27bd 7fd6 b13c 7b4c 37bc
00000060: 29b9 a93d 217d a63d 38ac b3bd 6f2d 353c
00000070: f577 563c 4bf7 21bd 19f5 0a3d 1d61 853b
00000080: 0d70 a4bd 56fd 613d e587 cc3d e391 aa3c
00000090: 8e5b 0bbd 9ca4 01bc a22d f2bd 86c7 7d3c
000000a0: 136b 76bd 593b abbd 9395 063e 7662 153e
000000b0: 82d0 80bd b1f1 dfbd 1bd0 d8bd 459b 7a3d
000000c0: 2d38 4f3d 880f 45bc adb6 b2bc 5355 b9bc
000000d0: 9530 1e3c 80f3 783e 2ec1 edbd d932 9a3c
000000e0: 3737 07be 5829 2c3d 8338 93bc a359 ac3b
000000f0: 7a67 ecbd a451 8e3b a641 8b3d 9776 babd
-0.03527294 -0.07866805 -0.07229032 0.07685647 -0.044172816 -0.010367045 -0.065261126 -0.06181472
-0.09371646 0.044406265 0.1258664 0.10335686 0.013231461 0.0011505488 0.20006968 0.12511514
0.024028795 0.09367114 -0.029902428 0.09925985 -0.019842818 -0.04092655 0.021708725 -0.011187668
0.082872696 0.08129335 -0.087730825 0.0110581955 0.013090123 -0.039542478 0.03392515 0.0040704147
-0.080291845 0.05517324 0.09986857 0.020821517 -0.03402286 -0.007912781 -0.1182511 0.015489465
-0.060160708 -0.08360929 0.13142996 0.14588341 -0.0628977 -0.10934771 -0.10586568 0.061183233
0.050590683 -0.012027629 -0.021815622 -0.022623694 0.009655138 0.24311638 -0.11609112 0.018823074
-0.13204657 0.042031616 -0.017971283 0.005259709 -0.11543174 0.0043432284 0.06799631 -0.091046505

transformer_encoder.layers.0.linear1.weight f4 [256, 64]
00000000: 3ab5 1b3c 06e5 10bd 0851 36be 0ab8 c6bd
00000010: 4fbf 23be 4739 ce3d f303 633d f6fe f7bd
00000020: fb97 413e 395a b03d c65f e4bd df46 03bc
00000030: a35c 92bd 97ff 8abe d1a3 893e f437 1a3e
00000040: a913 b53d 8eb2 f8bd 90ed 103e 942f c73b
00000050: 6baa c63c 34b5 973d 5409 293e 455b 043e
00000060: 4478 7bbc bbe6 b83c d6f7 6ebd e263 f8bd
00000070: ee24 46bd e949 9bbc 179a 043e 1eb3 053d
00000080: 1a9f 00be 47bc 01be c318 3cbc e087 12be
00000090: 1a69 f7bc 7d6a b23d b98b 983d dcca 323e
000000a0: 9364 bc3d 6725 b83d c5b3 f73a aeca 9ebd
000000b0: a34f 0c3e a37c 14be 17e3 4f3c d18b 263e
000000c0: fd8f 573e f4a8 0bbe f555 153d d980 5ebe
000000d0: 96c3 10be b1f6 b8bd 8abb 493c e4a2 10bd
000000e0: 5b97 f73d 9fe7 9fbd 74b6 073d db04 d33d
000000f0: d3c6 42be 58b8 e43d 1265 c03b e9b0 1b3e
00000100: 5192 21be 3974 d8bc 49b7 333d c258 2ebe
00000110: 8736 1d3e 2fec c43d 0c37 233e f689 a63c
00000120: 6ede 9a3e aa05 39be 971e 093e dc08 183d
00000130: 021e 093d 2326 8aba 46cc 9cbd 40a0 7fbe
00000140: e19c 05be 813b 353d 25da f8bd 061f abbd
00000150: 6dcd 4abd e14f 87bd fdb1 7ebe cd1f 65bd
00000160: e7e4 6f3d 188b 24bd 8a81 c33d 17bd c3bd
00000170: ae9a 74bd 90ff 01be 83e1 8a3c 254c 973d
00000180: e4c6 6d3c 95fa 3dbe 5f6f a73c 83ee ecbd
00000190: 5391 a7bd 9537 0fbe d046 213d 601c 363d
000001a0: c460 243d cb12 323e 67f0 a73e 1b0a e43b
000001b0: 174e 60bb f22f d4bd 989b a43c cced 453c
000001c0: 9446 2bbd dc8a 583d 1b8c 4abd f61f 053e
000001d0: 4d7c cfbb b013 2abd b224 373d e301 133e
000001e0: a823 c6ba 066c e53c f81b 1e3e f4c7 c2bc
000001f0: f3b0 843d 54a1 f0bd deae 4abd 0d7b 723d
00000200: 43ea d0bd d8c2 d8bd b75a 95bd 0743 82bd
00000210: 9ec0 b2bd e1bc 603e a42a 213c 2bbe 303e
00000220: 40c3 92bd a03a 00bc 3358 a53c 7f28 4a3e
00000230: 5273 82bd e283 b93d 3454 b2bc ef57 97bd
00000240: 4c53 353d 5b7d 143b 0fae b039 5a64 9cbd
00000250: 35e1 af3d 131a 583d 9417 eabd 57d4 d6bd
00000260: 660e f6bd a207 5ebe 66d9 9f3e 55e6 23be
00000270: aa16 5ebe 3fbe 123e 2cf8 a5bc 0b74 1c3e
00000280: c115 10be 736e 1cbe c939 99bd 2f20 223e
00000290: 6259 b3b8 4fe7 023d f576 113e 4a5a 203d
000002a0: f23a a1bd 7ca9 b7bc a05e 733d 4161 09be
000002b0: 6f49 033d 0451 02bd 7040 df3e eff2 8ebe
000002c0: eb47 f23d dd83 e83d 329e 0abd 75f9 27bd
000002d0: c82d 933d ae5f 21be 3a5f 20be c0d1 c7bc
000002e0: 703c 09be 68b3 723d 2e43 d5bd 1dfb e2bd
000002f0: e47f 853b 52a4 45bd 677c 72be 104c 1f3e
00000300: fda1 98bc b173 8ebd 3946 da3d 515e 7e3d
00000310: c3a4 343e a735 743e edd2 b53c b9d9 3cbd
00000320: c049 a5bd 0e94 4abb 0dc8 47bd ca5f 1d3c
00000330: ee41 52be 6ee6 0dbe c2bf 8cbd 5d4f 103e
00000340: 09d6 36be 7770 c93d f16d 983c 0a71 0dbe
00000350: bbb7 813d 5ef6 dc3c 0ab1 fabb a8c0 8e3d
00000360: e68e d6bc 3fcd 4ebe b367 ddbc 15d9 a23c
00000370: d212 0d3e 5f41 4a3d 58c4 923e 4aa8 77be
00000380: a3b1 603c 8932 4bbd 2c7b 0c3e ddce 4d3c
00000390: 0433 823c 1797 c6bd 4fdd 9abe 7ff7 23bd
000003a0: c2ca 59be 5227 59bb cc27 063e f436 4ebd
000003b0: 2954 843d 057b e43d 6669 df3d a32e 64be
000003c0: cb99 953d 920a cbbd aa0b 9fbe eb37 4a3e
000003d0: 5915 eebd 4297 0dbd 642b 24bd b19a d43b
000003e0: d87a 8cbd c9d7 903d f27a f1bc fedd 29be
000003f0: 34e0 073e 9fd3 dc3d d939 fabb a033 773d
0.009503657 -0.035374664 -0.17804348 -0.097030714 -0.15990947 0.100695185 0.05542369 -0.12109177
0.18905632 0.086109586 -0.1115108 -0.008012502 -0.07146575 -0.27148125 0.26882794 0.15060407
0.088416405 -0.121434316 0.14153123 0.00607867 0.024251183 0.07407609 0.16507465 0.12925442
-0.015348498 0.022570958 -0.058341824 -0.12128426 -0.048375063 -0.018956142 0.12949406 0.032641523
-0.12560692 -0.12669478 -0.011480513 -0.14309645 -0.030201484 0.08711717 0.07448525 0.17460197
0.091988705 0.08991509 0.001889818 -0.07753502 0.13702254 -0.1450067 0.01268842 0.16264273
0.21051021 -0.13638669 0.03645893 -0.21728839 -0.1413711 -0.09031428 0.012312779 -0.035311595
0.12089416 -0.0780785 0.033132985 0.103036605 -0.19021158 0.11167973 0.0058714235 0.15204205
-0.15778472 -0.026422607 0.043875966 -0.17026046 0.15352832 0.09615361 0.15938967 0.020329457
0.30247825 -0.18068567 0.13390575 0.037117824 0.033475883 -0.001053993 -0.076561496 -0.24963474
-0.13048126 0.0442462 -0.12150983 -0.083555266 -0.049512316 -0.066070326 -0.24872585 -0.05593853
0.058567908 -0.040171713 0.09546192 -0.095575504 -0.059717827 -0.12695146 0.016953235 0.0738757
0.014512751 -0.1855262 0.020438848 -0.1156893 -0.08182015 -0.13986047 0.039374173 0.044460654
0.040131345 0.17389981 0.328006 0.0069592125 -0.0034226233 -0.10360707 0.020093724 0.012080621
-0.041815355 0.0528668 -0.04945002 0.13000473 -0.0063319565 -0.04152268 0.04471273 0.14356188
-0.0015116828 0.028005611 0.15440357 -0.023776986 0.06479063 -0.11749521 -0.049483173 0.05919938
-0.10200932 -0.105840385 -0.07292693 -0.06360441 -0.08728145 0.21947052 0.0098368265 0.17260043
-0.07166147 -0.007826477 0.020183658 0.1974201 -0.06369652 0.09058358 -0.021768667 -0.07389819
0.04426889 0.0022657725 0.0003369902 -0.07636328 0.08587877 0.05275924 -0.114302784 -0.10489719
-0.12014465 -0.21682599 0.3122055 -0.16005833 -0.21688333 0.14330386 -0.02025994 0.15278642
-0.14070798 -0.15276508 -0.07481725 0.1583259 -8.552034e-05 0.031958874 0.14205535 0.039148606
-0.07872571 -0.022419684 0.059416413 -0.13416006 0.032052454 -0.031815544 0.4360385 -0.2791972
0.118301235 0.11353276 -0.033842273 -0.041009385 0.071864665 -0.15759155 -0.15661326 -0.024392009
-0.13401961 0.059253126 -0.10413204 -0.11083052 0.0040740836 -0.04825241 -0.23680268 0.1555636
-0.01863193 -0.0695566 0.10657925 0.062101666 0.17640977 0.23848592 0.022195304 -0.046106074
-0.08070707 -0.0030911001 -0.048774768 0.009605357 -0.20532963 -0.13857433 -0.068725124 0.14092775
-0.17855085 0.09835904 0.018607112 -0.13812652 0.06333872 0.026972946 -0.007650499 0.0697034
-0.026191186 -0.20195483 -0.027026987 0.019878903 0.1377671 0.04937875 0.28665423 -0.24185291
0.013714227 -0.04960874 0.13718861 0.012561527 0.015893467 -0.09696787 -0.3024697 -0.040030953
-0.21268752 -0.003313501 0.13101119 -0.050345376 0.06461365 0.111562766 0.10908775 -0.22283415
0.07304724 -0.099141255 -0.31063586 0.19747894 -0.116251655 -0.03456808 -0.040080443 0.006488167
-0.06859368 0.07072408 -0.02947757 -0.1658859 0.1326912 0.10782551 -0.0076362905 0.060351968

transformer_encoder.layers.0.linear1.bias f4 [256]
00000000: 1f5e debd f066 8dbd 6e1a 2ebe d1b9 1bbe
00000010: a6fa 30be 0a72 71be 2dbb ddbd ffc1 70bd
00000020: e196 0bbe ccb4 9c3c 318f 16be 3220 99be
00000030: 2710 cbbc ff5c 4dbe 3c96 4bbe 9125 41be
00000040: c8e2 20be d78e 82be 165b 4cbe 8479 a8bd
00000050: faee 13be c182 e2bd ac36 e5bd f832 3bbe
00000060: 0cfc 0dbe a1b3 6dbd 455f 66be 5305 703d
00000070: 384d 31bd 21a8 19bc 7ffd f9bc 0929 e1bd
00000080: 0fd3 4fbe 0256 15be f18a 8bbe bd18 24be
00000090: a91e 2cbd 9570 83be 37fe 19be 6e22 22be
000000a0: 8fb5 3fbe 4962 5dbe c37e 4abe e9a2 15bd
000000b0: 2021 97bd 8a2a 8dbd f66d 7abe 462b 70bd
000000c0: b1b2 77be 0a0f 2ebe aadf 1dbe a548 09be
000000d0: 8057 5dbd d33a a6bc 71fd 22bd 9b40 f6bd
000000e0: 2851 e33b b66e 0dbe 0332 aebc 2aab 07be
000000f0: b4d2 8abe 7d15 71bd c579 debd 5aa0 7cbe
00000100: 31a4 a2bd 1c74 c4bd 9505 af3b aab1 e9bd
00000110: a8a2 34be 2c4c f4bd d975 fbbd ef71 3fbd
00000120: f10d 64be b1fb b3bc 9a6b ad3a 926d 57bd
00000130: bc98 92bd 38bf 37bd adc6 8ebe 77c4 08bd
00000140: a234 2bbe 4378 4ebe 93e9 f1bd 971d 0fbe
00000150: df43 b4bd 1048 3dbe 388b d3bc 2c85 4ebe
00000160: 78cc 35bd 467a ebbd 5aba 61be f1ed 6abe
00000170: f0bb 17be 944b 5bbd e40d 2dbe 4c30 26be
00000180: 21b3 0ebe 605f 33bd 9d6a cabd 0414 b3bd
00000190: 0f0b 96bd 415e 5ebd 32b0 2abe 52d0 b0bd
000001a0: 589e f4bc f07e f0bd 6314 1ebe 56f0 82bd
000001b0: 1666 13be 5fb0 24be 12eb 04be d607 8dbd
000001c0: 20a5 ddbd a6e8 3dbe ba6d fabd b1fb 5cbe
000001d0: 41a8 4cbe 31eb eb3c 0534 86be 6742 d3bc
000001e0: 8129 3fbe 0c3d 69bd d1d7 b2bd a9c6 74bd
000001f0: f9e5 87bd 6d24 11be 8c20 7cbd f829 05be
00000200: 911f afbd 8e07 023d 2f3f 73bd 17ae 77bd
00000210: b2b3 09be 3205 aebd 92c6 05be 17da 92bd
00000220: e45e 4bbd afc4 3dbe 1355 abbd 89fe f2bd
00000230: 316c b2bd fde2 24be ad88 98be 1f6d 5abe
00000240: 0718 31be ef49 3cbe 8821 24bd e6c4 3bbe
00000250: 287f 0bbe 95b8 02be db77 87bd 9eff b4bd
00000260: b2e2 e8bd d269 5fbd 7f14 7abe 0a20 9bbd
00000270: 63a6 81be f5ae c7bd 7302 153d 0616 27be
00000280: bd38 fabd 612c 82bd 186d 75be 0a48 55bc
00000290: 7f6b 40be 5eb9 fbbd 6698 e1bd 4fc7 38be
000002a0: 556c e9bd 1db1 86bc 342d 5abe 40e5 22be
000002b0: 8d94 b9bc f529 8dbc 6ce7 51be 2887 1ebe
000002c0: d6f2 b1bd bce7 26be 24d1 9bbd dfff 0d3c
000002d0: dd88 d1bd a111 e4bd 58bc afbd 98a8 38bd
000002e0: 0435 bcbd 5154 c5bd 065b 2ebe c395 4ebe
000002f0: 6715 11be 5bdd 23be 1119 48be 7398 d8bd
00000300: a7f7 5fbe 5b60 08be ddf0 9cbd 8a3b 26be
00000310: 0335 b7bd 09e5 2b3b 6fe0 82be 388d d6bd
00000320: 2aee f6bd 240e 28be e743 90bd d52c 49be
00000330: 5e8b 1abe 6dd5 65bd 1d37 57bd 6fbf a0be
00000340: 4ae5 07be 213b c9bc e94b 49bd b074 f3bd
00000350: 60c7 2ebe 8b62 30be a680 08be 1522 65be
00000360: 691b 62be 5d80 43be 4042 89bd b7f2 033d
00000370: 2028 d63b 57d4 20be dc2a 24be 436c 1c3d
00000380: 046f 0fbe 183b 9b3c c7d8 84be 40a5 3ebd
00000390: 7ce9 65be f10e d73c 3cb5 70be b82e c0bd
000003a0: 1aeb 58be bd07 90be e08a 56be a84d ea39
000003b0: 2b96 38be 92ef 1dbe 3b4a 13be 5cdb 1ebc
000003c0: 33f7 b0bd 01d7 16be 59f5 3bbe 69b5 0dbe
000003d0: dfd7 72bd 8cd5 d4bc 30f4 17be 0843 49be
000003e0: 5522 86be d964 dbbd e9e8 8bbd bce6 45bd
000003f0: ca4f 87be 2581 23be b88c 20be 81eb b4bd
-0.10857796 -0.069043994 -0.1700227 -0.15207602 -0.17283115 -0.23578659 -0.108267166 -0.05877876
-0.13631774 0.01912918 -0.1470306 -0.29907376 -0.024787975 -0.20055006 -0.19881529 -0.18861987
-0.1571151 -0.25499603 -0.19956622 -0.08226302 -0.14446631 -0.110600956 -0.111920685 -0.18281162
-0.1386568 -0.058032636 -0.2249728 0.058598828 -0.043286532 -0.009378464 -0.030516384 -0.10994155
-0.20295356 -0.1458359 -0.2725444 -0.16025062 -0.042021427 -0.2567183 -0.15038382 -0.15833446
-0.18721603 -0.21619524 -0.19774918 -0.036532316 -0.07379365 -0.06892879 -0.2445601 -0.05863502
-0.24189259 -0.16997924 -0.15417352 -0.13406618 -0.054038525 -0.020291721 -0.03979248 -0.12024041
0.006937165 -0.13811764 -0.021264082 -0.13248888 -0.2711388 -0.058858383 -0.108630694 -0.24670544
-0.07941473 -0.095924586 0.0053412416 -0.1141084 -0.17640173 -0.11928591 -0.12278337 -0.046739515
-0.22270943 -0.021970602 0.001323092 -0.05259473 -0.07158038 -0.044860095 -0.27885953 -0.03339049
-0.16719297 -0.20163064 -0.11812129 -0.13976131 -0.08802008 -0.18484521 -0.02582322 -0.20167989
-0.04438445 -0.11497931 -0.22043744 -0.2294233 -0.14817786 -0.053538874 -0.1689983 -0.16229361
-0.1393552 -0.04379213 -0.09883616 -0.08744052 -0.07326328 -0.054289106 -0.16668776 -0.08633484
-0.02986066 -0.117429614 -0.15437464 -0.06393497 -0.14394411 -0.16082905 -0.12980297 -0.0688626
-0.10822511 -0.1854578 -0.1222796 -0.21580388 -0.19986059 0.028798671 -0.26211563 -0.025788499
-0.18668176 -0.056942984 -0.0873257 -0.05975977 -0.06635661 -0.14174052 -0.061554477 -0.13004291
-0.08550943 0.031745486 -0.05938643 -0.06046876 -0.13447455 -0.08497085 -0.1306403 -0.071705036
-0.04965104 -0.1853206 -0.08365836 -0.11864955 -0.08712042 -0.16102214 -0.29791775 -0.21330689
-0.17294322 -0.18387578 -0.04007104 -0.1833683 -0.13622725 -0.12765725 -0.066146575 -0.088378176
-0.11371364 -0.054544277 -0.24421881 -0.0757447 -0.25322255 -0.09750167 0.03637929 -0.16316995
-0.12217853 -0.06356121 -0.23967397 -0.013017664 -0.18791007 -0.12291215 -0.11015396 -0.1804478
-0.11397616 -0.016441876 -0.21306306 -0.15907764 -0.022653842 -0.01723192 -0.20498437 -0.15481246
-0.086888954 -0.16299337 -0.0760825 0.008666961 -0.10231183 -0.11136175 -0.085808456 -0.04508266
-0.091897994 -0.09635223 -0.1702691 -0.20174317 -0.1416832 -0.16002409 -0.19540812 -0.105759524
-0.21871816 -0.13318007 -0.076631285 -0.1623365 -0.08945658 0.0026229045 -0.25561854 -0.10476154
-0.12057145 -0.16411644 -0.07044201 -0.19646008 -0.15092227 -0.05611174 -0.052542794 -0.31396052
-0.1327106 -0.024564328 -0.04914466 -0.11887491 -0.17068243 -0.17225091 -0.13330325 -0.22376283
-0.22080769 -0.19091935 -0.06702089 0.032213893 0.006535545 -0.15706001 -0.16031975 0.038189184
-0.14007193 0.018949077 -0.25946638 -0.046544313 -0.22452348 0.026252242 -0.23506635 -0.09383911
-0.21183434 -0.28130904 -0.20951414 0.00044689816 -0.18026035 -0.1542342 -0.14383785 -0.009695854
-0.086408995 -0.14730455 -0.18355311 -0.13838734 -0.059287902 -0.025980733 -0.14839244 -0.19654477
-0.26198068 -0.107125945 -0.068315335 -0.04831575 -0.26428062 -0.15967233 -0.1567868 -0.08833981
