transformer_model.pth (torch, 997553 bytes, 29 tensors)

song_embedding.weight f4 [851, 64]
00000000: bfdb 793e 2b66 fb3d 08ee 2e3f aae7 073f
00000010: d861 1abe 21c5 2d3f cef4 9dbf 41ba 10bf
00000020: e5ea 383f 22d5 853f 5275 9a3d 9795 bfbf
00000030: 0ea7 07bd 08b7 23bf 8b92 c9bf 9893 1abe
00000040: d664 9f3e 9f8b b9bf 67dc 4fbf 7879 5e3e
00000050: e60f 8dbf 5c60 953f 46a8 d63f 45fe 7d3d
00000060: f4a8 03be caf9 cebf e9f3 bdbe 0955 7e3f
00000070: 55ba 74be 4bfc b8be fc4d 2c3f 2f09 263f
00000080: 6ace c9bf 4b9d 7cbf 8593 9fbf 1a42 883e
00000090: 2a0d debf b851 ee3f 9cba a8bf 8726 0140
000000a0: 88e3 cb3f 7c3c 483e cb92 bdbe e7cd e93d
000000b0: 996b c83f 7281 4cbe 9698 11bf 640a 243f
000000c0: 1ceb 93bf 3486 ecbf c2c7 303f fdd9 3e3e
000000d0: fa6b cb3e 1aee 893f 1cfe f53f fd6b a13f
000000e0: 15ec a8bf 57da cfbb da2f 61bf f561 dc3f
000000f0: 1320 fb3e ca38 6b3f acad 183f 9a3e a0bf
00000100: a7b4 bd3f f70e e4bf 2ec8 0fbf 94cf 68bf
00000110: d34d afbf b024 aa3f 829e 5e3f 7f98 ad3f
00000120: 975a b5bc 8f92 f63e 7905 2a3f 60a1 7dbe
00000130: 3181 05c0 4d07 583f b48a 7e3f 0858 063e
00000140: 83d8 7bbf 96ce 503e 1f82 cdbd a397 103f
00000150: f779 503f c134 dd3f 64fb a8bf f208 0d3f
00000160: 63ca 653f e359 a53f c057 313f 922c aabe
00000170: f395 2840 7000 f4bf beb1 67bf 2b14 6abf
00000180: 4e87 f6bf db1f e03f 07ba 2e3f a750 833f
00000190: 9caf aebf 2abb 18bf d96f 2f3f 40db 493d
000001a0: 3eef fa3e 0025 8abf 180c ad3e ce40 1a3f
000001b0: 1bfa 3f40 fae6 fe3e 7895 803f 773d ee3e
000001c0: b770 a7bf 2ed4 dabf ebe8 4fbf 459a f83e
000001d0: 7400 10c0 9f28 49bf a2f3 3e3f 4504 52be
000001e0: 62f4 45be 01a7 07c0 2824 f23e 2608 0dbf
000001f0: 9ce2 2ebe 34f1 9e3d b4ea 52be e979 62bf
00000200: 8c98 92bf 546e d0be a3fb 4fbf f552 663f
00000210: cf18 2bbf 90e5 9ebf c1c1 0bc0 d3b7 a93e
00000220: a396 2c3e 1d9a 5bbd 6fa3 b5be 8e66 f43d
00000230: 708a 0ebf 9e3c 8c3e c8b3 febe cf35 eabf
00000240: 8142 c8bc cfb7 ae3d 3d19 903f 042b cbbe
00000250: 5d8d ad3f 3349 abbf 3a3b 433f 737e 02bf
00000260: b8dd f33e 71c5 a8bf ac33 cf3f 4870 12c0
00000270: 2d22 47bf 2eee 44bf b2f6 09bf c402 e63e
00000280: ee62 ebbe c37b 9f3e dadf 82bf 162b 4e3f
00000290: c21e 81bf c8ef a4be bdc9 c73f 6b99 b83f
000002a0: 1fd0 c23f 12d9 5dbf db46 5cbe b475 903e
000002b0: 10a7 0dc0 a74e d43e 61d6 083f 2451 323b
000002c0: ccab 76be 0e98 9f3f 72c1 d13e 7997 2abf
000002d0: 0618 7d3f 0967 443f faa8 c1bf 4a6b 193f
000002e0: bdec 71bf a67c 1e40 04d5 32bf 6f09 78bf
000002f0: 7f26 babe 2d98 e3be 8f9e 44be 9ceb 70bf
00000300: c750 2b3f a4ec 873f e860 1cbf 2ecb 2cbf
00000310: b349 d4bf 6ca9 23bf 5b12 a7bf 3ae9 d03e
00000320: 50ca 87be 9f56 8b3f e791 2bbf b463 293f
00000330: b916 05bf 686e 8d3f 8ef7 9abf e76f 46bf
00000340: d90f 9e3f 3e7f e2be 151b 8abd 2769 26be
00000350: f302 523f be0f 75bf 47c2 ca3f 5bf4 ff3d
00000360: cb11 09bf fac5 d33f 579c 563e aa29 0abe
00000370: ca3a 37be ae3f cebf 0582 553f 7a26 d9bf
00000380: 7825 8f3e 91e0 e73d 097d 143e 4bf2 c43e
00000390: b4a5 f93e f54a df3f 3618 f03e a5bb dabf
000003a0: 06f9 7f3e 96da d63f 8c35 89bf 2fe3 0bbe
000003b0: e3d3 afbf df82 0ec0 3f0b 99bd f27a f6be
000003c0: c39a 70bf 106d ad3e 21f3 81bf d63f 71bf
000003d0: 91f7 d7bd 5596 cf3c d4df 0dc0 be55 0540
000003e0: e48b aa3f 5047 abbf a5cf b5bf cb12 4fbe
000003f0: 6e86 0bc0 0d99 f73d 071b 1f3f 9b8f 9b3f
0.24400233 0.12275346 0.68331957 0.53087866 -0.15076387 0.6787892 -1.2340333 -0.565342
0.7223342 1.0455668 0.07541908 -1.4967526 -0.0331183 -0.6395116 -1.5747846 -0.15095365
0.3113162 -1.4495734 -0.8119568 0.21726024 -1.1020477 1.1670032 1.6770103 0.06201007
-0.12857419 -1.616998 -0.3710015 0.99348503 -0.23899205 -0.36129984 0.67306495 0.64857763
-1.5766118 -0.9867751 -1.2466894 0.2661293 -1.7347767 1.8618689 -1.3181949 2.0179765
1.5928812 0.19554323 -0.37026057 0.11416226 1.5657836 -0.19971254 -0.5687345 0.64078355
-1.1556125 -1.8478456 0.69054806 0.18637843 0.39730817 1.0775788 1.9218173 1.261108
-1.3197047 -0.006343167 -0.8796364 1.7217394 0.49047908 0.9188353 0.5964 -1.2519104
1.4820756 -1.7817067 -0.56164825 -0.9094174 -1.3695625 1.3292446 0.86960614 1.3562163
-0.022137923 0.4815869 0.664146 -0.24768591 -2.0860102 0.8438614 0.99430394 0.13119519
-0.98377246 0.20391306 -0.10034584 0.5648138 0.81436104 1.7281724 -1.3201718 0.55091774
0.8976194 1.2918056 0.6927452 -0.3323713 2.6341522 -1.9062634 -0.9050559 -0.91437024
-1.9260042 1.7509722 0.68252605 1.0258988 -1.3647342 -0.5966059 0.6853004 0.04928136
0.49010652 -1.0792542 0.3379829 0.60255134 2.9996402 0.49785596 1.0045614 0.4653127
-1.3081273 -1.7096002 -0.8121478 0.48555198 -2.2500277 -0.7857761 0.74590504 -0.20509441
-0.19331506 -2.119568 0.4729321 -0.5509056 -0.17078632 0.077608496 -0.20597345 -0.8846727
-1.1452804 -0.40709174 -0.8124334 0.8997033 -0.6683473 -1.2413807 -2.1837008 0.3314806
0.16854338 -0.05361377 -0.35476252 0.11933623 -0.5567999 0.27389997 -0.49746537 -1.8297671
-0.024445774 0.085311525 1.1257702 -0.39681256 1.3558766 -1.3381714 0.7626225 -0.50974196
0.47630095 -1.3185254 1.6187644 -2.288103 -0.77786523 -0.76925933 -0.5389205 0.44923985
-0.45973915 0.3114911 -1.0224564 0.80534494 -1.0087512 -0.3221419 1.5608441 1.442182
1.5219764 -0.8665935 -0.21511404 0.282148 -2.2133217 0.41466257 0.53452116 0.0027209008
-0.24088973 1.2468278 0.409679 -0.6663738 0.9886478 0.7671972 -1.5129693 0.59929335
-0.9450186 2.476358 -0.69856286 -0.96889395 -0.36357495 -0.44452038 -0.1920111 -0.9410951
0.6692013 1.0619092 -0.6108537 -0.6749753 -1.6584991 -0.6393039 -1.3052477 0.40802938
-0.2652154 1.088581 -0.67019504 0.6616776 -0.519878 1.1049318 -1.2106798 -0.775145
1.2348586 -0.44237703 -0.06743447 -0.1625105 0.8203575 -0.95727146 1.5840539 0.12497779
-0.53542775 1.6544793 0.20958076 -0.13492456 -0.1789352 -1.6113183 0.8340152 -1.6964867
0.27958274 0.113221295 0.14500822 0.38466105 0.48759234 1.744475 0.4689347 -1.7088515
0.24997339 1.6785457 -1.0719466 -0.13660882 -1.3736538 -2.2267377 -0.07472848 -0.48140675
-0.9398615 0.3387227 -1.0152322 -0.9423803 -0.105452664 0.025340239 -2.2167864 2.0833583
1.3323941 -1.3381138 -1.4203993 -0.20222013 -2.18008 0.12089739 0.62150615 1.21532

artist_embedding.weight f4 [225, 64]
00000000: 2aa1 823e 6896 1c40 bf1f c53f af80 02c0
00000010: 4e07 333f 3f4a 5a3f e695 8f3f 2e7a 813f
00000020: 461f c43f c342 a7be 1c4e ac3d 5b16 0dc0
00000030: 91c7 753f bcd9 aa3f d3ab a63f e398 aa3e
00000040: a960 a43f 346a 373e f160 2fbf 731c a93f
00000050: 2f03 d5bf 5871 f33e 1b89 32bf 5106 0940
00000060: 8122 2d3e 4f29 48bf 6d7d 3540 7c56 923e
00000070: a62d 84be 2d91 abbe e7f7 7b3f fe7d 84bf
00000080: 7a5d ff3e 2cfc 1abd fb4a 2cbf 61d3 8f3f
00000090: e0fe 21bf 120f b7bf 1b5a ac3e 92cb 5bbd
000000a0: 4dc4 57bf b33f a63d 0fe4 033f 838f 5b3f
000000b0: 2649 4b3f f693 0cbf e03d c73d 943f 90bf
000000c0: 5672 ba3f 068f 83bf bd65 0d3f 1af0 d8be
000000d0: 6d05 ac3f f036 13be 0d07 ab3e 8601 63bf
000000e0: a64c 2cbb 3a8a c43d 3912 59bd f9b5 1240
000000f0: 6fc5 27bf 0f60 d9be 56c8 2bbf c88a 88be
00000100: 7185 043f a91b 973e 7a34 873e 1b69 ad3f
00000110: f952 45bf 9335 6abf 611e 01bf 76b0 88bf
00000120: 078c b93f 89ef 4dbf d56e c7bf cfc4 d13e
00000130: 384a 10bf 0bec 40be 9d6c 343f 2f1c 90bf
00000140: 8eee 19bf c0c7 6abf fc7b 46bf 8c22 1fbf
00000150: d7d4 b9bf e0bf f2bf 9aeb 7abf 99cd 4e3e
00000160: 23c2 b6bf bb3b 9b3f a038 bdbf 86f1 4cbf
00000170: 4580 423f e6df 283e 2598 9b3f a4cd 01be
00000180: f60e 963d 9e9c 08bf 44bb 48bf 6562 323f
00000190: 7682 b7bf c63f cf3e 9fce 99be 565c 193e
000001a0: dbcf 323f 3b13 c0bf 3ae4 07bf 1d01 013f
000001b0: 4daa 2cbe a8df 00bf f9f2 e0bd b7ad 8cbd
000001c0: fdbb 5bbf dfd1 9b3f 1178 673f 153a f7bf
000001d0: 1ff4 9e3e 4e42 04bf 9f5b c43f 0dc8 a3bf
000001e0: eae0 803f d28f 713e e407 3fbf 4440 c83f
000001f0: 6d8c e8bf 8da9 553e 2ea2 903f e5f1 5fbe
00000200: 8aa6 ad3f bc3e 183f b783 753f 57ac aa3f
00000210: 9b93 9fbf c965 a03f eb89 28bf 3931 203f
00000220: 0994 913e 7396 99bd 4ede 193f a1cf 303f
00000230: 6b85 cebf 0ed2 0940 7991 81bf 3785 8fbf
00000240: 6401 9fbf e8b0 0cbf 4a2b 813f 5878 c53e
00000250: 4a46 35bf e62f 31bf bb2e b43e 94ab 233f
00000260: 0c55 ed3e 9b9f 30bf cb6a 6abf b8e9 803f
00000270: 6337 d83e 2caf e93e 4732 c73f 32b9 57bf
00000280: 3153 923f 8fb6 82be 9755 8dbf 0d78 86bf
00000290: 6e52 cc3e 5746 30bf 3119 0dbf a739 91bf
000002a0: a3ac e8be 8800 8fbf b319 aabe 5964 ca3e
000002b0: 9662 a1bf 95a1 133f 09da f3be ce70 e13f
000002c0: 8063 4b3f 1795 c43f b9d4 b73f 6f60 b93f
000002d0: a833 22bd d996 6d3e da23 d4bd a3fe 6e3f
000002e0: 3d68 c03f 8443 12bf 1ed8 cbbe e54f 86bf
000002f0: 1897 01be 100d 56be 9b44 d4bf 9072 0dbe
00000300: e3c3 c4be c5a7 9ebf 6a29 b3be 78bf 51bf
00000310: 5d08 46bf 57c8 8f3e b92b ab3f e70f 4c3f
00000320: 42c0 103f 506c 13be c25e 45be 4d77 a63f
00000330: da13 ac3f 6695 e83f 1533 4a3f 15eb d7be
00000340: 1556 453f cf2e c2bf 3563 283f c046 3d3f
00000350: dac2 1f3f 90f2 2a3f fa91 abbf 6da9 23be
00000360: 4466 a6bf 9bce 4f3f c49e 423f 31f4 823f
00000370: 75de c7be a810 223e 76ef 0dbf 47ab 3c3f
00000380: d3b5 e13f b5d4 1340 a76c 133f 7b26 5c3f
00000390: d721 413c 7177 bcbe 9745 4fbe 2c4a efbf
000003a0: 4962 ccbf eec4 16bd a75f 5ebf 6df4 e03e
000003b0: 58dc c2be 7573 413f 26cf ce3f 146a 0a40
000003c0: 823b df3f bfc9 e63f a3cd e1be 007e e7bf
000003d0: ce43 01c0 0935 4e40 62cc 4d3f b627 1b3f
000003e0: 99b9 3abf 5341 f3bf a701 b0be 362b 5fbf
000003f0: daf3 763f e7e3 e13f 3cc5 be3f 2eb3 88bf
0.25513583 2.44668 1.5400313 -2.0391042 0.6993302 0.8526954 1.121762 1.0115411
1.5322044 -0.32668123 0.08413336 -2.2044895 0.9600764 1.3347697 1.3021187 0.33319768
1.2841998 0.17911607 -0.68507296 1.3211807 -1.6641597 0.47547412 -0.69740456 2.1410105
0.16907693 -0.7818803 2.8357804 0.28581607 -0.25816077 -0.33509198 0.98425144 -1.035095
0.49876004 -0.037838146 -0.6730191 1.1236383 -0.63279533 -1.4301474 0.33662495 -0.053660937
-0.84283906 0.081176184 0.51519865 0.85765857 0.7940849 -0.5491327 0.097285986 -1.1269403
1.4566143 -1.0278022 0.55233365 -0.42370683 1.3439156 -0.14376426 0.33403817 -0.886742
-0.0026290803 0.09596677 -0.052995894 2.2923567 -0.65535635 -0.424561 -0.67102563 -0.26668382
0.51766115 0.2951329 0.26407224 1.3547701 -0.7707973 -0.91488 -0.5043698 -1.0678852
1.4495858 -0.80443627 -1.5580698 0.40970466 -0.5636325 -0.18840043 0.7047823 -1.1258601
-0.6012963 -0.91711044 -0.77532935 -0.6216209 -1.4518079 -1.8964806 -0.9801575 0.20195617
-1.4277996 1.2127603 -1.4782906 -0.80056036 0.75976974 0.1649166 1.2155806 -0.12676102
0.07327072 -0.5336398 -0.78410745 0.6968139 -1.4336689 0.40478343 -0.30040452 0.1497663
0.6984841 -1.5005869 -0.5308262 0.50392324 -0.1686184 -0.5034127 -0.10983843 -0.06869071
-0.8583372 1.2173423 0.9041758 -1.93146 0.31045625 -0.5166367 1.534046 -1.2795426
1.0068638 0.2359002 -0.74621415 1.5644612 -1.8167855 0.2086546 1.1299493 -0.21869619
1.3566449 0.59470725 0.95904106 1.3333844 -1.2466921 1.2531062 -0.65835446 0.6257511
0.28433254 -0.07499399 0.60104835 0.69066817 -1.6134466 2.1534457 -1.012252 -1.1212529
-1.2422299 -0.5495744 1.0091336 0.38568377 -0.7081038 -0.6921371 0.35191903 0.6393368
0.46353948 -0.6899354 -0.91569203 1.0071325 0.42229757 0.45641458 1.5562218 -0.8426696
1.1431638 -0.25529906 -1.1041745 -1.0505387 0.3990664 -0.6885733 -0.55116564 -1.1345719
-0.4544421 -1.1172037 -0.33222732 0.39529684 -1.2608211 0.5766843 -0.47627285 1.761255
0.794487 1.5357999 1.4361793 1.4482554 -0.039600044 0.23202075 -0.10358401 0.93357295
1.5031811 -0.5713427 -0.39813322 -1.0493132 -0.12655294 -0.2090342 -1.6583437 -0.13813233
-0.384307 -1.2394949 -0.34992534 -0.81932783 -0.7735651 0.28082535 1.3372718 0.79711765
0.5654336 -0.14396787 -0.19274428 1.3005158 1.3443558 1.8170593 0.78984195 -0.4217154
0.77084476 -1.5170535 0.6577638 0.7393608 0.62406695 0.6677637 -1.3403924 -0.159826
-1.2999959 0.8117463 0.7602351 1.0230771 -0.3903691 0.15826666 -0.55443513 0.7369885
1.7633613 2.3098576 0.57587665 0.85996217 0.011787853 -0.36809877 -0.2024139 -1.869451
-1.5967494 -0.0368089 -0.86864704 0.43936482 -0.38058734 0.755668 1.6156967 2.1627245
1.7440035 1.8030318 -0.441022 -1.8085327 -2.0197635 3.221987 0.8038999 0.6060747
-0.7293945 -1.900431 -0.3437626 -0.8717531 0.9646584 1.7647675 1.4903941 -1.0679681

feedback_embedding.weight f4 [4, 64]
00000000: 7070 fb3e 0508 11be d592 94bf a85a 753f
00000010: 82d7 8d3f df4c 62bf 9011 58bf 97d6 903e
00000020: 66fb a93f 506b a9bf 3a8d ba3f e4e1 103f
00000030: 18f6 20bf 2e4a 203f ff56 20bf 6897 e63f
00000040: 61ad eabf 67fb 0cbf 66aa 8dbf 3d0e 5e3f
00000050: 3905 813f cbce 3d3f d43f 4cbd c4d5 86bf
00000060: 27d5 88be d880 013f 8cec 033f d034 aa3e
00000070: c327 30be cb39 48be 6f14 4fbe 6e67 873f
00000080: d91c 68bf c710 b9bf 75e1 ba3f 7656 41be
00000090: 3002 cbbf 09e8 3dbf 1fd6 03bf 9597 be3f
000000a0: ac2c c53c ab1a d8be 9478 f13f ed85 7d3f
000000b0: 0023 fd3d 19f8 a1bd ff91 cebf 8745 c4bf
000000c0: 7c9c 503f 7acd a0bf 3db6 ffbe cb7e 78be
000000d0: 94bf babe 23a6 adbe 4bb4 babe 7069 f8bf
000000e0: 4ea8 a4be df83 ed3e b6cf 36be 0891 c23f
000000f0: c8c2 a3bf 9a66 0ebf 9b9e 0340 e3d8 88bf
00000100: f216 04c0 b8c0 91bf 85c3 563f 7558 8c3f
00000110: 2b69 67be 7994 a13f a6c1 983f 3900 823f
00000120: 3f79 3f3e e2e3 f83e 3046 3fbc 7da0 d73e
00000130: 5dbd f8bf 2dc2 67be 2f45 0540 3f02 09c0
00000140: 3e36 ffbe 0bdb b2bf 15ae 50be 9d37 3ebf
00000150: f64f cd3f f3f0 f73e 1d74 063f 73f5 24be
00000160: 2b1b 053e e881 e73e d0b6 b83f 8185 2c3f
00000170: 7455 c6be be23 a3bf 4917 ae3e 7941 27bf
00000180: e57e 4e3e 534a 2bbf cfe7 383f 0030 e5bf
00000190: c730 1abe 8d12 75bf 7881 38bd 0e94 353d
000001a0: f99b 8d3f d6f1 4ebf 7ff0 de3e 1ea8 e4bd
000001b0: 678d aebe 3636 f63e f5ae 47bf 80b9 1f3f
000001c0: 8fc0 173f b38e bf3f 1346 0840 0b45 163f
000001d0: 7ff1 e3bf 035b b23d be7e 68bf d415 99bf
000001e0: 92e1 d7bd 4f7b d6bf 4e51 72bf 80dc e03f
000001f0: 0d5e c0bf 59eb 533f 0d3b 96be f189 a0bd
00000200: e7db 1bbf 89a4 c5bf 880e ce3f 0e31 51bf
00000210: dc09 0abc e214 f6bf 7a38 a7bf fc3a 49bf
00000220: bc86 643f ec9a d43e 91aa 0d40 5fa6 bdbf
00000230: 9c30 333e f7d7 07c0 4109 f6bd 9f0b 84bf
00000240: 39fe f53f 5eff 0ebf 3410 aabd 9b36 02be
00000250: d2eb 423e 949e 93be a9ea 02bf 4fef d5bf
00000260: 6e05 dbbe f336 963c 8fcf e73e 7e9f d9be
00000270: 72fa afbe f65d 6ebf f382 9a3b 12da 89be
00000280: afee 0fbf 31d9 8e3f a5e8 aebe 1c52 2e3f
00000290: b1c0 d1be b0ed 3f3f b243 87bf 322a aebf
000002a0: d37f 42bf 57ce 1cbf 098d 98bf 440e e3be
000002b0: 6800 fabd 57a6 c83e 5378 813f 7681 45bc
000002c0: 1a83 ab3f 7452 0f3f c7f0 f8be 72ad e6bf
000002d0: 61b8 49bf eff2 4dbf 6261 2a40 46c5 ab3e
000002e0: 14ae d7bd 8126 023f 916a f0bf b5d2 bdbf
000002f0: 180d 0cbd 3082 b63d 96de 2040 5ed9 1b3e
00000300: f2a0 f1be e3d9 c1bd 0a9e c03f b753 febe
00000310: f5c6 dd3e e9fb af3e 4bbe 13bd b746 393f
00000320: 17c2 9dbf 27e7 91bf 0281 9dbf d064 063f
00000330: 8dff 0e3b ab07 e03d 8f88 c03f 0f04 e4be
00000340: 88f6 42be 3b5c bfbe fac6 873e 5789 94be
00000350: 6162 6ebe 5a1c 93bf 7ac6 21bf ffb8 093c
00000360: 7541 923f e052 bf3e 3f43 a0be 4cbd 41bf
00000370: 4644 373f 3103 2bbf 8ef2 e13f ea7b 89be
00000380: 119a b53f 4521 003f f7bc be3f 2929 f63f
00000390: 3b13 0bbe a860 e7be 9873 04c0 6f6a 4dbf
000003a0: 6323 ff3e 2a36 b2bf c2cf 783e a3e9 443f
000003b0: 8536 093f 3990 babf 2c6d 4fbf b23a 1f3f
000003c0: 93a7 d5bc 417b a9be a206 82bf 38d8 d7bd
000003d0: 5f08 473f d216 b83e a36e 74be ae54 b4be
000003e0: 8077 16bf 006a 1f3f 695d 983e 052f 62bf
000003f0: 565a 73bf c1c2 553e 3a48 bbbe c981 08bf
0.4910922 -0.14163215 -1.160731 0.95841455 1.1081393 -0.88398546 -0.844018 0.2828872
1.3279846 -1.3235874 1.4574349 0.5659468 -0.6287551 0.6261319 -0.62632746 1.8014956
-1.8334161 -0.5507111 -1.1067626 0.86740476 1.0079719 0.74143666 -0.04986556 -1.0533986
-0.26725122 0.50587225 0.51532817 0.33243418 -0.17202668 -0.19553296 -0.20222639 1.0578439
-0.9066902 -1.4458245 1.4600054 -0.18880638 -1.5860043 -0.7418218 -0.514986 1.4890009
0.024069153 -0.42207846 1.8864923 0.9903248 0.12360191 -0.07908649 -1.6138304 -1.5333718
0.81488776 -1.2562706 -0.49943724 -0.24267118 -0.36474288 -0.33915815 -0.36465678 -1.9407177
-0.32159656 0.46389672 -0.17852673 1.520051 -1.2793818 -0.5562531 2.0565555 -1.0691189
-2.0639005 -1.1386938 0.8389209 1.0964495 -0.22598712 1.2623435 1.1934097 1.0156318
0.18698595 0.4861136 -0.011674449 0.4211463 -1.9432789 -0.22632666 2.0823476 -2.140762
-0.4984607 -1.3973097 -0.20378907 -0.7430361 1.6040027 0.48426017 0.52520925 -0.16109256
0.12998645 0.45216298 1.443079 0.6739121 -0.3873707 -1.2745283 0.3400214 -0.6533428
0.20165594 -0.66910285 0.7222871 -1.7905273 -0.1505767 -0.9573143 -0.045045346 0.04433065
1.1063224 -0.8083776 0.4354286 -0.11164878 -0.34092256 0.48088235 -0.7800134 0.62392426
0.59278196 1.4965423 2.129277 0.586991 -1.7808074 0.08708765 -0.90818393 -1.1959786
-0.10541071 -1.6756381 -0.9465531 1.7567291 -1.5028702 0.8278099 -0.29341927 -0.0783881
-0.6088242 -1.5440837 1.6098185 -0.81715477 -0.008425202 -1.9225123 -1.306411 -0.7860563
0.8926809 0.41524446 2.2135355 -1.4816397 0.17499012 -2.1225564 -0.12013484 -1.0316046
1.9218208 -0.5585841 -0.08303872 -0.12716143 0.19035271 -0.28831923 -0.51139313 -1.6713656
-0.4277758 0.018336749 0.45275542 -0.42504495 -0.34370762 -0.93112123 0.0047153174 -0.26924187
-0.5622358 1.1160032 -0.3416187 0.6809404 -0.40967324 0.7497206 -1.0567534 -1.3606627
-0.75976294 -0.6125235 -1.191804 -0.4434682 -0.12207109 0.39189407 1.0114845 -0.012054792
1.3399384 0.5598519 -0.486212 -1.8021681 -0.78796965 -0.8044881 2.6621938 0.33548945
-0.1053125 0.5084 -1.8782521 -1.4829928 -0.034192175 0.0891155 2.5135856 0.15219638
-0.47193104 -0.09465387 1.504823 -0.49673244 0.43315855 0.3437188 -0.03607015 0.7237353
-1.2324857 -1.1398667 -1.2304995 0.5249758 0.00218198 0.109389625 1.5041674 -0.44534346
-0.19039357 -0.37375054 0.26518995 -0.29011032 -0.23279716 -1.1493027 -0.63193476 0.008405923
1.1426226 0.37367916 -0.31301305 -0.7567947 0.7158855 -0.66801745 1.7652147 -0.2685235
1.4187642 0.50050765 1.4901417 1.9231311 -0.13581555 -0.4519093 -2.0695553 -0.8024053
0.49831685 -1.392278 0.24298003 0.76919 0.53598815 -1.4575263 -0.8102596 0.62198937
-0.026080882 -0.33101848 -1.0158274 -0.10539287 0.7774715 0.3595491 -0.2387033 -0.35220855
-0.5877609 0.6227112 0.29758766 -0.88352996 -0.95059717 0.20875074 -0.36578542 -0.53323036

transformer_encoder.layers.0.self_attn.in_proj_weight f4 [192, 64]
00000000: 1132 60be ab21 2dbc 7b03 4d3d f364 a9bd
00000010: 2b05 c9bd 250a b63d 7549 04bd 6da2 733d
00000020: 35a0 283d 213a 8ebd a8a9 8f3d 5595 1a3d
00000030: 5187 2bbd 0727 23be 8da9 bdbd 9c69 babd
00000040: 25dd 3d3e 8339 3e3c 9102 af3c a672 adbd
00000050: 1038 e63d 8d3a f6bd ef53 563b 2055 193e
00000060: 3e58 eabd d452 4abd b094 e0bc e3f2 2f3d
00000070: 33cd bb3d c2c1 c83d b97d aebd 4290 453c
00000080: d293 2b3e 0719 e73d 1287 b0bd 927a 38bc
00000090: 0399 e63d d47b 7bb8 601b c83c af2d 80be
000000a0: f583 7abd c395 d0bd f040 4cbd dff7 073e
000000b0: dc74 153d 2871 503e e77b 503e 93ec b23b
000000c0: 7853 e83c 54f6 483d 5199 03be 8e3c 49bb
000000d0: 458f 3abe 8d13 e83d 1299 103c 3d59 66bc
000000e0: 4661 bfbd a12c bbbd 64b6 683d a3ee cbbc
000000f0: 4d4a 87bd 40d0 e53d 2612 75bd e695 5dbd
00000100: e445 f73d a8de a83d 2572 66be c893 2f3e
00000110: a9b7 4fbd 0657 283d a68b 493d 0cfc 63be
00000120: 452f 463d b32e f0bc 4f78 083e 0e55 b1bd
00000130: d722 363d d115 bf3c 4980 4b3d b78b f03c
00000140: 2901 a3bd 38be d8bd dace 023d 74ba bcbc
00000150: 89c1 3b3e 379d 8abd 636f 2d3d 503e c0bd
00000160: 35ff 5d3d 3c54 e63d d3ca a63b af39 a53d
00000170: 8ddf 853c 97d7 9b3d 5819 febd 994f 6f3d
00000180: 90e5 26bd 0b86 50be 6aa0 80be 75f5 83be
00000190: 5c60 99bd 641e c7bd 0004 5b3d 5db5 f03b
000001a0: 3631 1b3e 7e98 1dbe b9d8 d53d 8775 333d
000001b0: 3c1f 4abe 21b4 93bc aeec 13be 38f4 8abe
000001c0: c210 52bd c213 9abd 7e21 03bd c983 2dbd
000001d0: d6f8 043d 5f5d d63c b3f7 d5bd 62df fabd
000001e0: 4ad6 603e 0c60 5fbe 6509 913d 7489 583e
000001f0: e3a9 a23d 02af 7a3d 4582 29be d98f a73d
00000200: bb6a e33d 5827 03be 29b7 003e f4c8 953c
00000210: 52b4 e23d 3465 5fbb e65f d03d f70e f93d
00000220: ea00 2a3d cade 32bd c0f1 873d 467b a63d
00000230: d877 f2bd 4417 04bd b9a6 273e 4926 0ebe
00000240: 000f 333d 1e17 b53d d5d4 503d b86e 93bc
00000250: d086 07be cc8e db3b 1a7c 29be c424 9bbd
00000260: f371 2a3d cacd 443c d6ec b2bc 6508 babd
00000270: 81ee 853d 51e4 15be 13af a53c a3ed f1bd
00000280: 1734 f63d 93a1 eb3d 8df8 633d 234b 7d3e
00000290: dd93 27be b7d4 433e 724b 72bd 4d1b c3bd
000002a0: cc33 4b3d ed8a 43be badf 6dbc fe9c e33d
000002b0: 0bdf 753e bc85 9abd 22cb 093d aaf5 0d3d
000002c0: b39e 1a3e 396e 033d 34dd a23d 494f f7bd
000002d0: dd09 bd3d dc56 083e b455 73bc f6ca 03bd
000002e0: cf1d 54be ecdf 913d 7e72 e2bc 9e5d 3bbd
000002f0: bfe2 ffbc 98c9 e5bd 7cd0 a5bd 2ca0 273d
00000300: 3e8c 84bc a210 343e ed1d 073e 09c2 8ebc
00000310: a536 e43d ff34 dabd 48d7 d4bd 4d70 d8bd
00000320: ac87 1b3e a44f 6f3d 02df 233d 627e d4bd
00000330: 5e72 9d3d f8b9 e1bd d859 bb3d 0f54 9bbd
00000340: b991 923d 8a96 5bbd 726b 1fbd 1d18 cebd
00000350: 3501 11be 1e3c 46be 55f0 d6bd 9925 203e
00000360: 419c fa3d 1b2a 94bd bfd7 433e 2c37 02be
00000370: 0318 0f3d d8e4 173d 2acc 353d 121e 7ebd
00000380: 044a 1fbe dfc9 9f3b 010d 013e 7d46 993d
00000390: 7e8c 5dbd 0ef6 22bd 7d31 12be 05b9 ee3d
000003a0: f6d3 633c 55f5 74bb 327c af3d 2028 3ebe
000003b0: 5b1b 8d3d d463 26bd 215d bf3d ae5f a13c
000003c0: cf75 0c3c e6d2 823c a607 4b3d ea4b 163e
000003d0: 2c4d e9bd af56 813b f7df 183e ad95 523d
000003e0: 97c5 293d ffe8 6b3e 1914 aa3d 91b5 27be
000003f0: cc66 debc f0c7 ecbc 8333 db3d e524 213e
-0.21894099 -0.010567109 0.050052147 -0.08271208 -0.09815439 0.08888654 -0.032296617 0.059481073
0.04116841 -0.06944681 0.07014781 0.03774007 -0.041877095 -0.15932857 -0.09260855 -0.09102175
0.18541391 0.011610392 0.021363528 -0.08469133 0.11241162 -0.120228864 0.0032703837 0.14973879
-0.11442612 -0.049395397 -0.02741465 0.042956244 0.09169998 0.09802581 -0.085200734 0.0120583195
0.16755608 0.112840705 -0.086195126 -0.011259692 0.112596534 -5.9958387e-05 0.024427116 -0.25034854
-0.061161 -0.10184815 -0.049866617 0.13278149 0.0364884 0.20355666 0.20359765 0.0054603308
0.028360114 0.04906304 -0.12851454 -0.003070626 -0.18218715 0.11331854 0.008825557 -0.014059362
-0.09344725 -0.09139372 0.056814566 -0.024894064 -0.066059686 0.11221361 -0.05983176 -0.054098032
0.120738775 0.08245593 -0.2250448 0.17146218 -0.05071226 0.041098617 0.049205445 -0.22264117
0.048384923 -0.029319143 0.13327144 -0.08658801 0.04446682 0.023325833 0.04968289 0.029363496
-0.07959206 -0.10583156 0.03193555 -0.023038127 0.18335547 -0.067682676 0.042342555 -0.09386885
0.054198463 0.11246535 0.0050900965 0.08067643 0.016341949 0.0760948 -0.12407178 0.05842552
-0.04074627 -0.20363633 -0.25122386 -0.25773206 -0.07489082 -0.097225934 0.05347061 0.007345839
0.15155491 -0.15390202 0.10441727 0.043813255 -0.19738477 -0.018030228 -0.14445755 -0.2713945
-0.051285513 -0.075233 -0.032014363 -0.04236201 0.03246387 0.02616757 -0.104476355 -0.12249638
0.21956745 -0.21813983 0.0708187 0.21146184 0.079425596 0.061202057 -0.165536 0.08181734
0.111043416 -0.12807977 0.1256987 0.018284298 0.110695496 -0.0034087421 0.10174541 0.121610574
0.041504778 -0.0436695 0.06637907 0.08128981 -0.11839265 -0.03224875 0.16372193 -0.13881792
0.043715477 0.088423 0.050984222 -0.01799713 -0.1323502 0.0067003723 -0.16551247 -0.07575372
0.041612577 0.012011955 -0.021841448 -0.090836324 0.06539632 -0.14637877 0.020225083 -0.11812904
0.12021654 0.11505427 0.05565696 0.24735694 -0.16364999 0.19124113 -0.05915398 -0.095266916
0.049609944 -0.19095965 -0.014518673 0.11113928 0.24010865 -0.07545039 0.03364099 0.03465811
0.15099601 0.03208754 0.079523474 -0.12075669 0.09230397 0.13314384 -0.014851976 -0.03217598
-0.20714496 0.07122788 -0.027642485 -0.045743577 -0.03123605 -0.112200916 -0.08096406 0.040924236
-0.016180154 0.1758447 0.1319501 -0.017426508 0.11143235 -0.106546395 -0.10392624 -0.10568295
0.15188473 0.05842556 0.0400076 -0.10375668 0.076878294 -0.11021799 0.09147996 -0.07584392
0.07156701 -0.053610362 -0.038920827 -0.10063193 -0.14160617 -0.1935887 -0.104950584 0.15639342
0.12236834 -0.072345935 0.1912527 -0.12716359 0.03493501 0.037083477 0.04438416 -0.062040396
-0.15555578 0.00487636 0.12602617 0.07484148 -0.054089062 -0.039785437 -0.14276691 0.116563834
0.013905516 -0.0037377675 0.0856861 -0.18569994 0.06889983 -0.040622547 0.09343935 0.019698944
0.00857301 0.015969705 0.04956784 0.14677396 -0.113916725 0.003947101 0.14929186 0.051412273
0.041448202 0.230381 0.083046146 -0.16377856 -0.027148627 -0.028903931 0.107031845 0.1573673

transformer_encoder.layers.0.self_attn.in_proj_bias f4 [192]
00000000: 2e52 163d 78e0 0cbe 22e3 f63d c248 e93c
00000010: ec7a 97bd 0cee 34be ee21 6dbd 029d 073e
00000020: 4da1 743d 6dd3 8c3c dbe6 89bc 6364 82bb
00000030: 4a8a 3bbd 5e40 d9bc 1cc9 093d 18e2 dbbc
00000040: e3af 7ebc b63f bd3d 4ff2 48bd 3ca6 8039
00000050: 97fc 413d 74fd 213c 37ef 64bd ea24 0d3d
00000060: f734 853d 084e 653d 423d 90bd 07e9 a4bd
00000070: 6072 c4bd a577 103b 1a00 4b3b 8b5d e73d
00000080: 61b4 513c 7b30 1f3d 9c50 a23c 7fe9 8bbd
00000090: 433a cebd fb6e 9c3d 6d87 85bd 6296 593d
000000a0: ce07 753d 56ea 4c3d 8f8e 153c a232 c5bc
000000b0: 9f37 483d a765 97bc ae4c 193c ecd2 d1bc
000000c0: 9386 04bd 8a35 893a b9e5 04be 7470 ecbd
000000d0: f49a 4dbd 9368 593d 0a30 cf3d 4412 c33d
000000e0: b2e2 86bb ea14 c3bc 5f5d 9ebd 00ad 163d
000000f0: c250 32bd 8c0d 9d3c 5fc2 503a 3c19 583c
00000100: b4b9 1c3a 277f eb3b 42ce 23bc f0bf beb6
00000110: a5db 18bc b6f6 83ba ebcd 853c e747 08bc
00000120: 10b0 47bb 8868 88bc e007 eebb 8bd5 c53a
00000130: 9a63 9f3b 9a18 473c 395b 7dbb 99c3 543b
00000140: 50db c4ba 2960 ffbb a566 19bb 4ab6 743a
00000150: 1426 30bc 0e90 14bc 46bf 7a3b 64cf 853b
00000160: f1a7 02bc e26b c33b ed16 c33b a27b e9bb
00000170: cc08 5abb 8c2c c83a 9039 6b3b 2ddf acbb
00000180: e821 2e3c c051 9b3b 601c 56bb 703c 363c
00000190: b8cb 1c3c eece 42bb 107e ccbb ce01 053c
000001a0: f250 9bbb ef60 17bc 5817 393b 31d3 d0bb
000001b0: f67d c239 46ec acbb 5389 0f3b 0fb2 afbb
000001c0: d39c 503b 99ad c73b 57cd 503c e114 2e3b
000001d0: a466 e13b f8af b9bb 108f 91bb 696e 99bb
000001e0: a18c 123b 561a f3ba f221 473b d1ee 49bb
000001f0: 8b35 f63b 4cc2 fdbb 6356 203c 8075 d13a
00000200: 5aff eb3c 0661 aebc 028a 99bc ac8a 99bc
00000210: a4f8 043d c6e7 17bd 3597 163d 19f9 0cbc
00000220: 7f87 733d 0ead f9bc f038 8dbc 7d24 0ebd
00000230: 664b 9a3c 58cd d83c f3de 0fbd 4f4c caba
00000240: ec4c 60bc b4cd a03c 057c 0bbd 2031 61bd
00000250: c1fd f53b acc4 0a3d 0057 f3bc 29fa a43a
00000260: 9dc7 09bd a369 373c 3a0c 54ba 5e21 4a3d
00000270: 6b9f d63c cabb 203d e699 62bc d719 0b3d
00000280: 8354 7cbb 156e ac3c aafc 18bb 0cff d03c
00000290: a038 bebc 6fac eebc ee3f c2bc cd34 b53c
000002a0: 965c 4a3c fcb7 463c 89a9 c6bc d5fe 4d3c
000002b0: 2020 a2ba 0b3a 8f3c 754b 3a3d b242 c1bb
000002c0: 2216 21bc 0331 40bd 521a ad39 9b18 173c
000002d0: 1220 d5bb 51b4 03bd 6107 2abc 6fc1 da3b
000002e0: 61bf 4ebd 7945 9ebb 020e 73bc 2eea 2e3d
000002f0: 2ca6 fb3c 4f62 e63c dcba 95bc 81ca 6ebc
0.036699466 -0.13757503 0.12055041 0.028477076 -0.07396492 -0.17668933 -0.057893686 0.13243487
0.05972414 0.01719066 -0.016833713 -0.003979252 -0.04578618 -0.02651995 0.03363906 -0.026841208
-0.015544864 0.092406675 -0.04905921 0.00024537917 0.04736003 0.009887088 -0.055892196 0.034459032
0.06504243 0.05598262 -0.07042934 -0.08052259 -0.09592128 0.002204397 0.0030975402 0.11297139
0.012799353 0.038864594 0.019813828 -0.06831645 -0.10069706 0.07638355 -0.06519971 0.05312193
0.059821896 0.050028168 0.009128227 -0.024071995 0.04888117 -0.018481089 0.009356661 -0.02561327
-0.032354902 0.0010468226 -0.12978257 -0.11544886 -0.050196603 0.053078245 0.101165846 0.09524968
-0.0041163797 -0.023813684 -0.07732653 0.03678608 -0.043534048 0.019171499 0.0007963534 0.01318961
0.00059785997 0.0071867886 -0.009997906 -5.6847857e-06 -0.009329711 -0.0010068032 0.01633354 -0.008317924
-0.0030469932 -0.016651407 -0.0072641224 0.0015093548 0.0048641684 0.012151862 -0.003865911 0.0032465218
-0.0015018973 -0.0077934456 -0.0023407128 0.00093350245 -0.010751266 -0.009067548 0.003826098 0.004083561
-0.007974611 0.0059637884 0.0059536607 -0.007125334 -0.0033269404 0.0015272065 0.0035892464 -0.005275628
0.010628201 0.00473997 -0.0032670721 0.011122808 0.009570055 -0.002972539 -0.0062406138 0.008118106
-0.004739874 -0.009239419 0.0028242674 -0.006372832 0.00037096412 -0.0052771894 0.002190192 -0.0053618024
0.0031831756 0.0060936925 0.012744269 0.0026562738 0.006878691 -0.005666729 -0.004442103 -0.0046823514
0.0022361653 -0.0018547277 0.0030385223 -0.0030812512 0.007513707 -0.0077441093 0.009786221 0.0015980452
0.028808285 -0.021286499 -0.018742565 -0.018742882 0.032463685 -0.03708627 0.036765296 -0.008604311
0.05945539 -0.030478027 -0.017239064 -0.034702767 0.01883478 0.026465103 -0.03512473 -0.0015434119
-0.013690215 0.019629337 -0.03405382 -0.05497849 0.0075070565 0.033878967 -0.02970457 0.001258676
-0.03363763 0.011194619 -0.000808898 0.049348228 0.026199063 0.03924159 -0.013830638 0.03396019
-0.0038502521 0.021048585 -0.002334396 0.02551224 -0.02322036 -0.029134957 -0.023712125 0.022119904
0.012351176 0.012128826 -0.024250763 0.012572964 -0.0012369193 0.017483732 0.045482118 -0.0058978433
-0.009831937 -0.04692174 0.00033016742 0.009222175 -0.006504067 -0.032154385 -0.010377736 0.006675891
-0.050475482 -0.004830059 -0.014834883 0.0427038 0.030718885 0.028123049 -0.018277578 -0.014574648

transformer_encoder.layers.0.self_attn.out_proj.weight f4 [64, 64]
00000000: f5de 8c3d 71d2 213d ff56 8f3d 2cfd b5ba
00000010: 8169 dabc 65db 85bd 1f01 50bd 39d1 933d
00000020: a7ee 123c 03db db3c 60b9 df3d cb86 2bbc
00000030: 3287 64bb 23a2 05bc 5968 bb3c 4baa 9e3d
00000040: 1ddd 8ebd 52d0 c83c 1599 ae3d 5abf 95bd
00000050: 06e5 afbd 01b6 7fbd b044 a5bd 7d76 9cbc
00000060: 59f6 273d 336d ae3b 6cd2 b13d f606 d13d
00000070: beeb 623d 797a 1abd 7bc7 093e 1ce4 743d
00000080: 9679 7f3c f85c 9dbd 39b5 65bc 819c bf3d
00000090: 491c 4a3c 03bb 6ebc 0449 1a3c e343 22bc
000000a0: cb0f 273d 2089 5bb7 cfc0 9d3c 7659 79bd
000000b0: f935 18bd 869f 64bd 1898 41bd 9191 9cbd
000000c0: 0d30 eebc c12d 43bc 1df2 04bc 4dcf db3d
000000d0: dc0f 133d 3f98 afbd 656d 8dbd c3af 643d
000000e0: 4870 47bc 4093 12b8 8adc 983c e924 813c
000000f0: 5ddd 5cbd 77ef fa3b dbbe 7dbd b807 db3b
00000100: ca6e 69bc e215 88bc cb7f 32bc 2e94 9c3b
00000110: ae4f e5bd 7da6 3fbd 23db c23c d5b5 1dbd
00000120: 643e 553c 809a a23c 3805 0f3d 3a00 1a3d
00000130: 246c 1ebd 5ac4 bebd a8a5 7c3d db0c 9d3c
00000140: 1b3b 39bc 5d4d be3c 28f4 edbd 3c2a d43c
00000150: a341 efbc 1fea 1f3b 2f12 943d be19 2a3c
00000160: 47b1 b6bd 053b 3b3d f25a 9e3d 74c4 60bc
00000170: e12e ab3c fc35 c93c a26e 71bb 04c1 4cbd
00000180: b236 94bc afc1 153c 7ecf d4bc c901 02bd
00000190: 8def ec3d 8362 3dbd 5c09 2a3d 8398 9ebd
000001a0: a869 1e3c 59e9 20bc 7f0a 1dbd bf61 8ebd
000001b0: c982 5fbd cb46 4c3d 54cd 8c3d 6c6a 22bd
000001c0: d3c0 463d 09fc c23c aa77 8dbc 66ed 7bbd
000001d0: af1e fabc 3968 1d3c 8ca8 5d3d cde4 94bd
000001e0: 57b9 0dbe ecb4 55bd 03e4 a73c 5ac8 ea3c
000001f0: cd3b fe3c a85c 1f3d 9851 babc c9ec a43c
00000200: 3a95 bfbb c71e 1b3d d8b9 b1bd 2b4f c43d
00000210: e4de 103d dbba c3bd 5f41 5e3d 4e41 55bc
00000220: d750 05bd 8666 a23c a243 ab3d 5639 6abc
00000230: 16f6 043d 2c17 2ebd d121 013c b4e1 b6bd
00000240: b192 f03c fcf9 13bd dca9 423c 7b04 2fbd
00000250: 347e c73d 106d f13c a0a5 1a3c c24e 4f3d
00000260: 098c 5f3d fb30 7d3d 3f61 253d f5bb 103d
00000270: 7ae3 03be a812 dfbc 884d 143c 1ee1 863c
00000280: 1e06 56bd 9590 7b3d df68 bcbc 3b66 983c
00000290: 766c 2cbd efe9 88bb 138f afbd 7eae 3fbc
000002a0: bf7f 4cbd bf98 25bc 76aa 86bc b6b0 a1bd
000002b0: f3b7 843a 2656 383d 5723 c83c 7b0f a73c
000002c0: 4ca6 2a3d 6f5b 5e3c 0a35 30bd b352 3d3d
000002d0: 8291 8cbd 8519 5a3d 6689 023d c49f 7ebd
000002e0: 8d0a 51bb cd76 663c a8be 9037 4ad5 87bd
000002f0: 1125 c43c a6f2 2a3c 6634 f53d 9f40 5b3c
00000300: 6930 38bd b4d5 893d a75e 663c 3419 c8bd
00000310: c508 82bd 7ed5 61bd e327 8abb f65a 173d
00000320: 61d9 8b3d bbab 593d 4a6c 143c 99c0 08bd
00000330: 2fd0 3f3d 4132 1fbd 45ac 0dbd 5258 923c
00000340: edd0 783d c219 7abd 86a8 f43d c8c8 d3bd
00000350: 6f17 07bc 9d49 a43d 0edc 77bc e0bf 033e
00000360: 3150 f03c 511f 49bd b595 e7bc fe60 963d
00000370: 3995 92bd 8f7f 9c3d 09b1 f33c 8870 2dbd
00000380: 15b4 073d 20d7 923d 5098 fdbc 2873 3dbd
00000390: d40c 963c 97a7 b139 3774 eebc 9985 c73d
000003a0: 69d3 94bd 6cc0 5dbc 57b5 35bd fd87 763a
000003b0: 032f ab3c 4e7f 30bd 545e 4abb 074b 77ba
000003c0: a338 f53c 50ef e3bd fc15 88bd 4579 49bd
000003d0: b371 933a 561e 593d 46c0 343d 5f78 cbbc
000003e0: 3cb4 95bd 6d12 17bd 09f3 ae3d 6a7c a7bd
000003f0: 9282 eaba 5aa3 983d 3cce 043d 89c5 1e3d
0.06878463 0.039507333 0.06999015 -0.0013884655 -0.026661636 -0.06535987 -0.05078232 0.072176404
0.008968032 0.026837831 0.10924029 -0.010469149 -0.0034870622 -0.008156332 0.022876905 0.077473246
-0.06975768 0.024513397 0.08525292 -0.07311888 -0.08588605 -0.06242943 -0.08069742 -0.019099468
0.04100642 0.005323076 0.08682713 0.10206406 0.055400603 -0.037714455 0.13455002 0.059787855
0.015592953 -0.07683748 -0.014020258 0.093560226 0.012335845 -0.014570954 0.009416822 -0.009903881
0.040786546 -1.3085344e-05 0.019256977 -0.060876332 -0.037160847 -0.055816196 -0.04726419 -0.07644952
-0.029075647 -0.011912764 -0.008114365 0.10732899 0.035903797 -0.085739605 -0.06905631 0.055831682
-0.012172766 -3.494625e-05 0.018659849 0.01576467 -0.053922046 0.007657941 -0.061949592 0.0066842698
-0.014247606 -0.016611997 -0.010894726 0.0047784066 -0.11196838 -0.046789635 0.023786133 -0.038503487
0.013015363 0.019849062 0.034917086 0.037597872 -0.03867735 -0.09314795 0.06168142 0.019171169
-0.011305596 0.023230249 -0.11618835 0.025899045 -0.029206103 0.0024401022 0.07230031 0.010382114
-0.08920532 0.045710582 0.0773219 -0.013718713 0.020896377 0.024561875 -0.0036839624 -0.04998876
-0.018092487 0.009140416 -0.025977846 -0.031739984 0.11569128 -0.046236526 0.041512832 -0.07743933
0.009668745 -0.009821259 -0.038340088 -0.06952237 -0.054568086 0.0498722 0.06875101 -0.039652273
0.048523735 0.02380182 -0.017268974 -0.061505698 -0.03053221 0.009607368 0.054115817 -0.07270203
-0.13840233 -0.052174494 0.020494467 0.028659988 0.031034375 0.038906723 -0.022743985 0.02013244
-0.0058466466 0.03787115 -0.08678025 0.095854126 0.035368815 -0.09557124 0.05426156 -0.013016058
-0.032547798 0.019824278 0.08362509 -0.0142958965 0.03246125 -0.042502567 0.007881598 -0.08929768
0.029366823 -0.036127076 0.011881318 -0.042728882 0.09740868 0.02947095 0.009438902 0.05061222
0.054576907 0.06181429 0.040375944 0.0353355 -0.12879744 -0.027230576 0.009051688 0.016464766
-0.052251928 0.06141718 -0.022999225 0.018603435 -0.042095624 -0.0041782777 -0.08572211 -0.011699317
-0.049926516 -0.010107218 -0.016438704 -0.07895033 0.0010125622 0.045004033 0.024430914 0.020393124
0.0416625 0.013571604 -0.043019332 0.046221446 -0.06863691 0.053246994 0.031869315 -0.062164083
-0.0031897158 0.01406641 1.7254919e-05 -0.066324785 0.023943456 0.010433828 0.11972885 0.013382106
-0.044968043 0.06730214 0.014060653 -0.09770432 -0.06349329 -0.055135243 -0.0042161806 0.03695198
0.06828571 0.05314229 0.009059021 -0.0333868 0.0468294 -0.038866285 -0.034588117 0.01786438
0.060746122 -0.06105972 0.11946206 -0.1034103 -0.008245333 0.08021853 -0.015128149 0.12866163
0.029335113 -0.04910213 -0.028269628 0.073427185 -0.07157368 0.07641517 0.029747503 -0.042343646
0.033130724 0.07169938 -0.030956417 -0.0462524 0.018316664 0.00033884935 -0.02910815 0.097422786
-0.07266886 -0.0135346465 -0.044362392 0.0009404419 0.02089644 -0.043090157 -0.0030878978 -0.0009433482
0.029934233 -0.111296296 -0.06644818 -0.049187917 0.0011249095 0.053007446 0.04412868 -0.02483767
-0.073097676 -0.036882807 0.08542449 -0.08178027 -0.0017891696 0.07453032 0.032423243 0.038762603

transformer_encoder.layers.0.self_attn.out_proj.bias f4 [64]
00000000: f6dc ee3c 43b6 d2ba 5990 e73c 66ea 1fbd
00000010: 42fb c63a 779c d33c 467f f53c 7a67 0b3d
00000020: e48d 313d 2fed 96bc 9f5a bb3d 19d3 28bd
00000030: c2c5 f0bc 985a af3c 10d3 99bd 5d76 c1bb
00000040: d61d b83d 2f9f 87bd 8f09 87bd 3a48 b0bc
00000050: bef8 b33d 18dd 2e3d 01f2 253d 193f ae3d
00000060: 46ac 5ebd 932a f8bc de7c 5b3d dfbb a23c
00000070: 5c3e 6ebd c06e 93bb edf7 4d3d 7a5e dd3c
00000080: c04f 89bd c46b 49bd 119d 0dbc 61f1 3ebd
00000090: 5f06 97bd 3787 a1bc 0093 9139 6856 3a3d
000000a0: 8e0f 88bd 199c 683d e5d7 683d b5a0 353c
000000b0: 978f a0bb e3f8 113d 46b4 4cbd 339e 6fbd
000000c0: ac54 dfbc adf5 1fbd 699c 1cbc 8577 ed3b
000000d0: 144b 8fbb b800 80bd e474 6d3d 8bc7 98bc
000000e0: 904e 77bd b57e eabc 19ca 84bd d41e 9e3d
000000f0: 3064 f9bc 1b94 81bc ee1a 7e3c 1b72 843d
0.029158097 -0.0016076047 0.028267073 -0.0390419 0.0015181082 0.025831444 0.029967915 0.03403423
0.043348208 -0.018423645 0.09148144 -0.041216943 -0.029391173 0.021405503 -0.0751096 -0.0059040026
0.08990066 -0.06622159 -0.0659362 -0.021518815 0.08787678 0.04269132 0.040513996 0.08508129
-0.05436351 -0.030293738 0.05358588 0.019864975 -0.05816494 -0.0044992864 0.05028527 0.027022589
-0.06704664 -0.04917504 -0.008643405 -0.046616916 -0.07374262 -0.019717796 0.0002776608 0.04549256
-0.06643592 0.05678949 0.056846518 0.011085679 -0.0048999297 0.035637747 -0.04997661 -0.05850048
-0.027262054 -0.039052654 -0.009558775 0.007246914 -0.0043729637 -0.06250137 0.057972804 -0.018649837
-0.060377657 -0.028624872 -0.064838596 0.07720724 -0.030443281 -0.015817693 0.01550935 0.064670764

transformer_encoder.layers.0.linear1.weight f4 [256, 64]
00000000: bc04 813e 44c3 13b9 aa42 8cbd 46c3 ff3d
00000010: fee0 11be fcf2 79bd 7676 403d d030 983e
00000020: 9289 36be 9b67 813d 0060 4ebd 2cb7 15bd
00000030: 10f3 37bd b0be ccbd 4aec 05bd d6b0 c5bc
00000040: f126 02be 1d11 acbd 5f1d 0bbe 66ea f1bd
00000050: cb0d 093d 03da 47b9 0059 b83d e98d 95bc
00000060: e483 72bd 6ac8 d3bd 17cf 22be ad49 56bd
00000070: 8904 13bb 26f5 733d cdcb 98bd bdf2 f9bd
00000080: 291f f23c fb32 07bd 1cb6 edbc dddb 2abd
00000090: 589a 85bd 926e 923e e99e 59bd 60db 133e
000000a0: b8c2 c7bc e46f 6d3e be70 28be 0b50 8e3d
000000b0: 4fa0 77be 33fa 153e f9f4 963e 6cb6 123a
000000c0: 0e7e 90bd 2fc1 3cbe 1edf a73d 6ce9 183e
000000d0: 6900 2dbd 3aa2 073e 73af e83d 76c0 bc3a
000000e0: e75e 803d 440b 873d 6670 843e d510 3abc
000000f0: 9dd9 653d 31cd e73d a071 223e 9960 4cbe
00000100: bcc5 5b3d be3b 82bd 7083 c9bd c6e6 12bd
00000110: a510 133c 2a7c 903d 6f00 1c3e 3855 bf3d
00000120: 0351 d33d 0fb1 4fbd db87 77bd ed03 d73d
00000130: bc01 88bc 21b2 483d 9d2a 683c 5a89 6fbd
00000140: 5ae4 2a3e 9587 0c3e cdf1 bbbc 87a9 f8bd
00000150: 26e4 a8bc 4b44 233d d349 963e 295b 0b3e
00000160: 69de cb3d 1e1f febd dcee 323e 6b35 0fbe
00000170: b794 eabd 234b 8f3c 5743 7bbd 374d 7b3d
00000180: 1c72 0dbe 5931 153e 6fa2 2a3d edbf 5fbe
00000190: 3f51 2f3c 48a2 9fbb 638f 87bb 10af fdbd
000001a0: bff0 383e f5ac 193e cf35 553d 7215 13be
000001b0: 573f 3a3d 51f6 42bd a40d b1bc 70bd 6cbd
000001c0: f932 113e e0fe e1bb dd00 eb3d 5d6e 9a3d
000001d0: b820 b0bd 35db 373d abef 5a3d 9ee2 b4bd
000001e0: 71ac b8bc 23ed 24be 00b2 35bc b5c7 06be
000001f0: b0cc 593e 07a3 0cbe 01dd f33b fe85 ce3d
00000200: 72b9 793d 3d8a 9fbd 0295 48be 1203 5bbd
00000210: 639d d13d c8b9 f4bc 9209 003d 6677 d0bc
00000220: 33d3 41be 0262 353d 2165 943c cfd0 4fbd
00000230: 866f 1e3b 1398 41bd bb33 2bbd d619 a4bd
00000240: 2143 eebd 34e7 463d 8b4c d63d e111 2dbd
00000250: 7b4c 863d a486 2439 e6df bdbc 5dc6 babd
00000260: 43c3 c7bd e86e a93d 984f 043d 2e85 dbbd
00000270: 5da6 3e3e 9bf1 ec3d b7b4 883d 00c7 50bc
00000280: a004 9a3d f94c c8bd ae1b b2bd f77c a9ba
00000290: 0732 51be d30f d7bd ab9d d43d dc86 38bd
000002a0: d655 d33c a3c4 033c ab31 c03d 62dd 43be
000002b0: c810 b73d 3c67 e0bd 8301 573c f94d 6bbd
000002c0: d09d 113e f71e dfbc c04b 763e 57a3 9d3c
000002d0: 475f 09bd 3daa 84be 8ecc c1bd f65c 8a3d
000002e0: 36d4 123e 55fc c73d f7e9 af3d be0e a23d
000002f0: b4ee febd 150b 93bc f7db 9e3c f8e1 cdbd
00000300: c1cf 223d 7770 b7bd 7060 e03d 630e d2bd
00000310: 7ca0 43be 6633 7fbd bde2 64bd b7a4 15be
00000320: 2bd9 76bc df31 973d 92f9 923c 913c 733c
00000330: de0e 153c b726 153e 709b 18be 527d adbc
00000340: b58d f0bd 523f 293e 9a47 8abd 6061 07be
00000350: 8c60 5b3e 5b59 723d 9700 10bd a5e6 30bc
00000360: ed56 9fbd 6cc8 dc3d 3fc3 adbd 4847 8c3d
00000370: dc2b fb3c fc18 3dbb e5c0 6cbd 5ecf 033e
00000380: ba78 85bd b6b6 3bbd 41b6 01bd 3860 a73c
00000390: b426 213d f825 46bd bf0e 2f3d 80d4 abbc
000003a0: c762 4fbd 279b b9bc 97c2 bf3d 5abe eb3d
000003b0: 3b4c 72bd 222b 2cbe 1c60 8c3d 153a e33d
000003c0: 9f59 ed3d 0721 9ebd 8d97 fdbd 6698 d8bc
000003d0: 8949 0b3d 4115 4abe aa46 28be c196 953e
000003e0: 6a23 dbbd 0007 de3c ba31 123e f0d7 463e
000003f0: ba8b 10bb cf14 f6bd 2564 77be b81c 59be
0.25198925 -0.00014091755 -0.06848653 0.12488417 -0.14245984 -0.061022744 0.046987973 0.2972474
-0.17825916 0.06318589 -0.05038452 -0.03655164 -0.044909537 -0.09997308 -0.032696046 -0.024132174
-0.12710167 -0.084017016 -0.13585423 -0.11812286 0.03346042 -0.00019059335 0.090013504 -0.018256145
-0.059207812 -0.1034096 -0.15899311 -0.052316356 -0.0022433123 0.059559964 -0.07460747 -0.12204502
0.029555874 -0.033007603 -0.0290175 -0.041713584 -0.06523579 0.28599983 -0.053130064 0.14439154
-0.024384841 0.23187214 -0.16449258 0.06948861 -0.24182247 0.14646225 0.29483774 0.0005596641
-0.07055293 -0.18433069 0.08196853 0.14932793 -0.04223672 0.13245478 0.11361589 0.001440062
0.06268101 0.065939456 0.25867003 -0.011356552 0.056115735 0.11318434 0.15863657 -0.19958724
0.05365537 -0.06359051 -0.09839523 -0.035864614 0.008976136 0.070549324 0.1523454 0.09342426
0.10318186 -0.050705966 -0.060432296 0.10498796 -0.01660239 0.048998002 0.014170316 -0.058480598
0.16688672 0.13723595 -0.022942448 -0.1214171 -0.020616602 0.03986005 0.29353198 0.13608994
0.09954531 -0.12408279 0.1747393 -0.13985221 -0.11454146 0.017491883 -0.061343517 0.061352935
-0.1381306 0.14569606 0.041658815 -0.21850558 0.010700523 -0.0048716404 -0.004136966 -0.12386906
0.18060587 0.15007384 0.05205327 -0.1436365 0.04547056 -0.047598187 -0.02161295 -0.05779785
0.14179601 -0.0068968385 0.11474774 0.075405814 -0.085999906 0.044886786 0.05345122 -0.08832286
-0.022543164 -0.16106085 -0.011089802 -0.1316212 0.21269488 -0.13734065 0.007442117 0.10084151
0.06096787 -0.07790039 -0.19588092 -0.053469725 0.10235097 -0.029873744 0.031259127 -0.025447559
-0.18928222 0.04428292 0.018114628 -0.050736245 0.002417536 -0.04726417 -0.04179738 -0.0801274
-0.116338976 0.048560336 0.10463818 -0.04225338 0.06557556 0.00015690416 -0.023178052 -0.09119866
-0.0975404 0.08273107 0.03230247 -0.107187614 0.1861815 0.1156952 0.066750936 -0.012742758
0.075204134 -0.09780306 -0.08696686 -0.0012930919 -0.2042924 -0.10501065 0.10381635 -0.045050487
0.025797766 0.008042487 0.093844734 -0.1912742 0.08938748 -0.109571904 0.013122919 -0.057447407
0.14220357 -0.027236445 0.24052334 0.019242926 -0.03353813 -0.25911132 -0.09462844 0.06756012
0.14338765 0.097649254 0.08589547 0.07912968 -0.12447873 -0.01794962 0.019391997 -0.10052866
0.03974891 -0.08956998 0.10955894 -0.1025665 -0.19104189 -0.062304877 -0.055880297 -0.14613615
-0.015066425 0.07382559 0.01794127 0.014845983 0.009097783 0.1456555 -0.14903045 -0.021177921
-0.117457785 0.16528061 -0.06751938 -0.1322074 0.21423548 0.059167247 -0.035156813 -0.010797177
-0.07780252 0.10780415 -0.08484506 0.06849533 0.030660562 -0.0028854003 -0.057801146 0.12872073
-0.065171674 -0.045828544 -0.03166795 0.020431623 0.03934355 -0.048376054 0.042738672 -0.020975351
-0.05063131 -0.02265699 0.09363287 0.11510916 -0.05915473 -0.16813329 0.06854269 0.11095063
0.115893595 -0.07721143 -0.12382422 -0.026439857 0.034005675 -0.1973467 -0.16433206 0.2921658
-0.10700114 0.027102947 0.14276782 0.19418311 -0.002205594 -0.12015688 -0.24159296 -0.21202362

transformer_encoder.layers.0.linear1.bias f4 [256]
00000000: c326 3abd b00f 41be 38b0 44be 60fa 14be
00000010: 1034 3f3d eae4 cb3b fe70 d4bd c191 dbbd
00000020: e4ff 1bbe 82fd 303d a341 dcbc e7da 28be
00000030: 606a b9bd 599c ea3b 3073 0cbe 93ce 57be
00000040: 4655 7fbc 8fda 32be 6072 aebd 1fe3 48be
00000050: 281d 48bd bd40 cfbd 1dde c8bd a574 593c
00000060: 00ef 0abe fa67 d7bc 9120 27be 29aa 54bd
00000070: eca9 07be b396 c33b 289a 1bbe f96a e3bd
00000080: 5bed d13c 8f59 10be e5b6 25be 0208 51be
00000090: a012 90bd 5019 c5bc e861 2d3c e074 39be
000000a0: e052 b9bd a33a a2bd 551a 6cbe a075 6fbc
000000b0: 4019 b3bd e80d de3d 26c1 a3bd 6ec2 fcbd
000000c0: b447 dcbd 4fe0 4abe afb2 4abe 75e9 5b3c
000000d0: dbc2 79bd c0cb 12be 44e6 48be c7ee 86bd
000000e0: 761e 6bbc 452f 1ebe a59d b1bd 515d 24be
000000f0: a729 24be e0b9 82bd dcda 31bd 9020 08be
00000100: 09bb 733c 2d61 5fbe c0a5 63bc 663a aabc
00000110: fbe0 333b 059e 2a3d 5c7a 56bc 9ecc 0cbc
00000120: c4cc ec3c 11d7 22be 1640 b9bd 7df0 6ebe
00000130: 2590 05bd fec7 923d f29c cabd b6f4 a93b
00000140: 40ac 4abe 6269 31bd 6e47 ddbd 718b abbd
00000150: ede3 0ebe 32fb 23bc fcbc 2ebe 04e5 5cbe
00000160: 0e50 4b3d 9092 30be c229 e2bd ebf0 cbbd
00000170: d790 62be f447 5dbe e5c8 fbbc 90be b0bd
00000180: 603d 73be 59c5 00be c5af 33be b1c3 25bd
00000190: 66e3 2bbe c436 20bd 5ea6 7ebd 4d1b 0bbe
000001a0: 8169 cabd 3f1d 51be 9048 94bd 7e8a 10be
000001b0: 576e 07be 284b bfbc fa35 b8bb 2502 793c
000001c0: 01ea a23c db7f 6fbc 4953 aa3c c2a0 afbd
000001d0: 57fc 6bbd 883d 56be 5495 debc 032a 61bd
000001e0: dad9 80be 1679 4bbe aa4f 2c3d 1a17 4a3d
000001f0: 89d2 8f3a f466 c7bd 6703 4cbe a53c f3bd
00000200: 10a0 a1bc f2d9 72bb 5b9a 13be 8c37 02be
00000210: 27bf 07be 47ff 81bc eea7 e1bd d8d9 0bbe
00000220: ee3b 77bd 6c50 26be 9fec e8bd 62fa 12be
00000230: 15bd b3bd a667 27bc bce0 f8bd 0605 19be
00000240: 6c67 c9bd b4fe 4ebe edbb 3dbd c153 08be
00000250: 123b 58ba a68d ffbd cf99 03be a6bd a1bc
00000260: 6560 d7bd b52a 0ebe 8ee5 803d 0a26 a6bc
00000270: 9f05 c7bc 638f fcbd 74dc 2cbe 2db4 38bd
00000280: aba4 0abe d29c 16be 568c 98bc 4148 c0bd
00000290: 4f3e ebbd 8f08 b5bd 6d08 4fbe efef fbbd
000002a0: 0cb8 c5bd f22c 10be f56a 8ebd 597c b8bd
000002b0: ae44 ebbd 0134 303c 655f dfbd 26e5 aebd
000002c0: 8335 04be 0cb8 d5bd 1878 e6bd 08a5 2ebe
000002d0: 8c04 67bd b42c 90bd 301b bf3d 2efc 5fbe
000002e0: bb5e 8bbd 8e7f 04be 2e79 77bd b836 e9bd
000002f0: a3f4 e2bd d32a 5bbe 3982 3abd 264f 3f3c
00000300: ef22 bcbd 93a0 10be 583f 18bd c6f6 40be
00000310: 9d70 e4bd c35b 9abd 55fc 1cbe 7fc3 0cbe
00000320: 288f d93b b8d2 83be 1588 00be 65bb bdbd
00000330: bd47 e2bd 4984 b7bd 7dc3 00be 444c 0cbe
00000340: 6f92 cbbd dbf1 11ba 03b0 1bbe 1d8e 13bd
00000350: d285 d3bd c066 d9bd 3c11 a6bd e277 d3bd
00000360: ff5e debd 8b0c 50be 9656 b4bd c133 22be
00000370: 028e 58be a890 cdbd 8657 6a3d 3e7c c8bd
00000380: a7d3 dabd d78e aabd 86ec 823c d605 99bd
00000390: a563 8dbd 594b 743a 47e7 1dbe e2d1 18be
000003a0: 1d65 9d3c cc41 23be 22a9 54be ccc9 f2bd
000003b0: a8e2 65be ab79 d03c a39b 75bd 69ce b53c
000003c0: 98ca 7e3b 5e6b 7fbd 784d fcbd cb1c 2ebe
000003d0: 95ae 803d 234f 20be 9310 b53b 2617 a9bd
000003e0: 6777 d1bd 6aee 90bd 8471 2fbe 6896 24be
000003f0: fc7c f8bd 11b9 1cbd 1b84 03be 3564 763c
-0.045447122 -0.1885364 -0.19207847 -0.14548635 0.04668051 0.006222357 -0.10373114 -0.1072116
-0.15234333 0.043210514 -0.026886767 -0.16489755 -0.090534925 0.0071597514 -0.13715816 -0.21074896
-0.015584296 -0.17466186 -0.08517909 -0.1961789 -0.04885593 -0.1011977 -0.0980799 0.013272439
-0.13567734 -0.026294697 -0.16321017 -0.05192009 -0.13248414 0.0059688925 -0.15195525 -0.11104388
0.025625875 -0.14096664 -0.1618305 -0.20413211 -0.070348024 -0.024059922 0.010582425 -0.1811099
-0.0904901 -0.0792134 -0.2305692 -0.014615446 -0.087450504 0.10842496 -0.079958245 -0.12341772
-0.10755864 -0.1981213 -0.19794725 0.01342236 -0.060976844 -0.14335537 -0.1961909 -0.06588512
-0.014350524 -0.1544772 -0.086726464 -0.16051222 -0.16031514 -0.06383109 -0.04342161 -0.13293672
0.014876136 -0.21814413 -0.013894498 -0.0207798 0.0027447331 0.041654605 -0.013090696 -0.008593706
0.028906234 -0.15902354 -0.090454265 -0.23333926 -0.03260817 0.07167052 -0.09893216 0.0051866425
-0.1979227 -0.04331339 -0.1080464 -0.08376206 -0.13954134 -0.01000862 -0.1706428 -0.21571738
0.049636893 -0.17243409 -0.11043121 -0.09958061 -0.22125565 -0.21609479 -0.030735442 -0.08630097
-0.23753881 -0.12575282 -0.1754752 -0.04046983 -0.16785964 -0.03911473 -0.06217038 -0.13584633
-0.098834045 -0.20421313 -0.07240403 -0.1411533 -0.13225685 -0.023351267 -0.005621669 0.015198265
0.019886972 -0.014617885 0.020791667 -0.08575584 -0.057613697 -0.2092191 -0.027170815 -0.054971706
-0.25166208 -0.1987041 0.04206816 0.049338438 0.0010972779 -0.097364336 -0.19923173 -0.118768014
-0.019729644 -0.0037056175 -0.1441435 -0.12716502 -0.13256513 -0.015868796 -0.11018358 -0.1365732
-0.060359888 -0.16241616 -0.11373257 -0.14353326 -0.08776299 -0.010217583 -0.1215224 -0.14943323
-0.09834179 -0.20214349 -0.046321798 -0.133132 -0.0008248548 -0.12478189 -0.12851642 -0.019743752
-0.10516433 -0.13883479 0.06293784 -0.02028181 -0.024294673 -0.12332036 -0.16880971 -0.045093704
-0.13539378 -0.1470826 -0.018621605 -0.09388781 -0.11486494 -0.08839523 -0.20218058 -0.12301623
-0.09654245 -0.14079645 -0.06953994 -0.090080924 -0.11487709 0.010754586 -0.10906867 -0.085398
-0.12911038 -0.10435495 -0.11253375 -0.17055142 -0.05640082 -0.070397764 0.093313575 -0.21873543
-0.06805178 -0.12939283 -0.0604183 -0.1138739 -0.11081817 -0.21403055 -0.045534346 0.011676585
-0.091863506 -0.14123754 -0.037169784 -0.18844137 -0.11154292 -0.075370334 -0.15330632 -0.13746451
0.00663938 -0.25746703 -0.12551911 -0.09264258 -0.11048839 -0.08960778 -0.12574573 -0.13700968
-0.09940039 -0.00055673503 -0.15203862 -0.0360242 -0.103282586 -0.10615301 -0.08108756 -0.103256
-0.10857963 -0.20317285 -0.088055775 -0.15840055 -0.21147922 -0.100373566 0.057212375 -0.09789322
-0.10684901 -0.08328026 0.015981924 -0.07471816 -0.06903771 0.0009319089 -0.15420257 -0.14923814
0.019213254 -0.15943068 -0.20767644 -0.11854896 -0.22449744 0.02544864 -0.05996288 0.02219315
0.003887808 -0.062358253 -0.123194635 -0.17003171 0.06283299 -0.15655188 0.0055256574 -0.08256368
-0.10227852 -0.07076724 -0.17133147 -0.16073 -0.12133214 -0.03826243 -0.12843363 0.01503854
